…
To enable them in other operations, rebuild TensorFlow with the appropriate compiler flags.
2024-08-24 08:21:14.567982: I tensorflow/core/common_runtime/gpu/gpu_device.cc:1616] Created device /job:localhost/replica:0/task:0/device:GPU:0 with 13575 MB memory:  -> device: 0, name: NVIDIA GeForce RTX 4060 Ti, pci bus id: 0000:01:00.0, compute capability: 8.9
1 Physical GPUs, 1 Logical GPUs
Fold:  0
Model: "sequential"
_________________________________________________________________
 Layer (type)                Output Shape              Param #   
=================================================================
 conv2d (Conv2D)             (None, 32, 32, 32)        896       
                                                                 
 max_pooling2d (MaxPooling2D  (None, 16, 16, 32)       0         
 )                                                               
                                                                 
 conv2d_1 (Conv2D)           (None, 16, 16, 32)        25632     
                                                                 
 max_pooling2d_1 (MaxPooling  (None, 8, 8, 32)         0         
 2D)                                                             
                                                                 
 conv2d_2 (Conv2D)           (None, 8, 8, 32)          123936    
                                                                 
 max_pooling2d_2 (MaxPooling  (None, 4, 4, 32)         0         
 2D)                                                             
                                                                 
 conv2d_3 (Conv2D)           (None, 4, 4, 64)          100416    
                                                                 
 max_pooling2d_3 (MaxPooling  (None, 2, 2, 64)         0         
 2D)                                                             
                                                                 
 conv2d_4 (Conv2D)           (None, 2, 2, 32)          18464     
                                                                 
 dropout (Dropout)           (None, 2, 2, 32)          0         
                                                                 
 flatten (Flatten)           (None, 128)               0         
                                                                 
 dense (Dense)               (None, 10)                1290      
                                                                 
=================================================================
Total params: 270,634
Trainable params: 270,634
Non-trainable params: 0
_________________________________________________________________
Taxa de aprendizado:  0.1 Num de épocas:  227 Tamanho do lote:  16 Dropout:  0.23
Epoch 1/227
2024-08-24 08:21:15.947989: I tensorflow/stream_executor/cuda/cuda_dnn.cc:384] Loaded cuDNN version 8100
…
