…
To enable them in other operations, rebuild TensorFlow with the appropriate compiler flags.
2024-08-24 12:18:29.979816: I tensorflow/core/common_runtime/gpu/gpu_device.cc:1616] Created device /job:localhost/replica:0/task:0/device:GPU:0 with 13575 MB memory:  -> device: 0, name: NVIDIA GeForce RTX 4060 Ti, pci bus id: 0000:01:00.0, compute capability: 8.9
1 Physical GPUs, 1 Logical GPUs
Fold:  0
Model: "sequential"
_________________________________________________________________
 Layer (type)                Output Shape              Param #   
=================================================================
 conv2d (Conv2D)             (None, 32, 32, 32)        896       
                                                                 
 conv2d_1 (Conv2D)           (None, 32, 32, 64)        100416    
                                                                 
 conv2d_2 (Conv2D)           (None, 32, 32, 32)        51232     
                                                                 
 max_pooling2d (MaxPooling2D  (None, 16, 16, 32)       0         
 )                                                               
                                                                 
 dropout (Dropout)           (None, 16, 16, 32)        0         
                                                                 
 flatten (Flatten)           (None, 8192)              0         
                                                                 
 dense (Dense)               (None, 70)                573510    
                                                                 
 dropout_1 (Dropout)         (None, 70)                0         
                                                                 
 dense_1 (Dense)             (None, 116)               8236      
                                                                 
 dropout_2 (Dropout)         (None, 116)               0         
                                                                 
 dense_2 (Dense)             (None, 10)                1170      
                                                                 
=================================================================
Total params: 735,460
Trainable params: 735,460
Non-trainable params: 0
_________________________________________________________________
Taxa de aprendizado:  0.01 Num de épocas:  50 Tamanho do lote:  64 Dropout:  0.3
Epoch 1/50
2024-08-24 12:18:32.011106: I tensorflow/stream_executor/cuda/cuda_dnn.cc:384] Loaded cuDNN version 8100
…
