…
To enable them in other operations, rebuild TensorFlow with the appropriate compiler flags.
2024-08-24 12:21:07.032081: I tensorflow/core/common_runtime/gpu/gpu_device.cc:1616] Created device /job:localhost/replica:0/task:0/device:GPU:0 with 13575 MB memory:  -> device: 0, name: NVIDIA GeForce RTX 4060 Ti, pci bus id: 0000:01:00.0, compute capability: 8.9
1 Physical GPUs, 1 Logical GPUs
Fold:  0
Model: "sequential"
_________________________________________________________________
 Layer (type)                Output Shape              Param #   
=================================================================
 conv2d (Conv2D)             (None, 32, 32, 32)        896       
                                                                 
 max_pooling2d (MaxPooling2D  (None, 16, 16, 32)       0         
 )                                                               
                                                                 
 conv2d_1 (Conv2D)           (None, 16, 16, 32)        50208     
                                                                 
 conv2d_2 (Conv2D)           (None, 16, 16, 32)        50208     
                                                                 
 max_pooling2d_1 (MaxPooling  (None, 8, 8, 32)         0         
 2D)                                                             
                                                                 
 conv2d_3 (Conv2D)           (None, 8, 8, 64)          100416    
                                                                 
 max_pooling2d_2 (MaxPooling  (None, 4, 4, 64)         0         
 2D)                                                             
                                                                 
 batch_normalization (BatchN  (None, 4, 4, 64)         256       
 ormalization)                                                   
                                                                 
 dropout (Dropout)           (None, 4, 4, 64)          0         
                                                                 
 flatten (Flatten)           (None, 1024)              0         
                                                                 
 dense (Dense)               (None, 108)               110700    
                                                                 
 dropout_1 (Dropout)         (None, 108)               0         
                                                                 
 dense_1 (Dense)             (None, 10)                1090      
                                                                 
=================================================================
Total params: 313,774
Trainable params: 313,646
Non-trainable params: 128
_________________________________________________________________
Taxa de aprendizado:  0.1 Num de épocas:  191 Tamanho do lote:  256 Dropout:  0.18
Epoch 1/191
2024-08-24 12:21:08.794147: I tensorflow/stream_executor/cuda/cuda_dnn.cc:384] Loaded cuDNN version 8100
…
