…
To enable them in other operations, rebuild TensorFlow with the appropriate compiler flags.
2024-08-24 12:23:23.315591: I tensorflow/core/common_runtime/gpu/gpu_device.cc:1616] Created device /job:localhost/replica:0/task:0/device:GPU:0 with 13575 MB memory:  -> device: 0, name: NVIDIA GeForce RTX 4060 Ti, pci bus id: 0000:01:00.0, compute capability: 8.9
1 Physical GPUs, 1 Logical GPUs
Fold:  0
Model: "sequential"
_________________________________________________________________
 Layer (type)                Output Shape              Param #   
=================================================================
 conv2d (Conv2D)             (None, 32, 32, 32)        896       
                                                                 
 conv2d_1 (Conv2D)           (None, 32, 32, 128)       36992     
                                                                 
 conv2d_2 (Conv2D)           (None, 32, 32, 64)        991296    
                                                                 
 max_pooling2d (MaxPooling2D  (None, 16, 16, 64)       0         
 )                                                               
                                                                 
 conv2d_3 (Conv2D)           (None, 16, 16, 256)       409856    
                                                                 
 max_pooling2d_1 (MaxPooling  (None, 8, 8, 256)        0         
 2D)                                                             
                                                                 
 dropout (Dropout)           (None, 8, 8, 256)         0         
                                                                 
 flatten (Flatten)           (None, 16384)             0         
                                                                 
 dense (Dense)               (None, 122)               1998970   
                                                                 
 dropout_1 (Dropout)         (None, 122)               0         
                                                                 
 dense_1 (Dense)             (None, 104)               12792     
                                                                 
 dropout_2 (Dropout)         (None, 104)               0         
                                                                 
 dense_2 (Dense)             (None, 10)                1050      
                                                                 
=================================================================
Total params: 3,451,852
Trainable params: 3,451,852
Non-trainable params: 0
_________________________________________________________________
Taxa de aprendizado:  0.001 Num de épocas:  132 Tamanho do lote:  512 Dropout:  0.24
Epoch 1/132
2024-08-24 12:23:25.160993: I tensorflow/stream_executor/cuda/cuda_dnn.cc:384] Loaded cuDNN version 8100
…
