…
To enable them in other operations, rebuild TensorFlow with the appropriate compiler flags.
2024-08-24 12:08:15.806779: I tensorflow/core/common_runtime/gpu/gpu_device.cc:1616] Created device /job:localhost/replica:0/task:0/device:GPU:0 with 13575 MB memory:  -> device: 0, name: NVIDIA GeForce RTX 4060 Ti, pci bus id: 0000:01:00.0, compute capability: 8.9
1 Physical GPUs, 1 Logical GPUs
Fold:  0
Model: "sequential"
_________________________________________________________________
 Layer (type)                Output Shape              Param #   
=================================================================
 conv2d (Conv2D)             (None, 32, 32, 32)        896       
                                                                 
 conv2d_1 (Conv2D)           (None, 32, 32, 64)        51264     
                                                                 
 dropout (Dropout)           (None, 32, 32, 64)        0         
                                                                 
 flatten (Flatten)           (None, 65536)             0         
                                                                 
 dense (Dense)               (None, 62)                4063294   
                                                                 
 dropout_1 (Dropout)         (None, 62)                0         
                                                                 
 dense_1 (Dense)             (None, 10)                630       
                                                                 
=================================================================
Total params: 4,116,084
Trainable params: 4,116,084
Non-trainable params: 0
_________________________________________________________________
Taxa de aprendizado:  0.001 Num de pocas:  83 Tamanho do lote:  128 Dropout:  0.05
Epoch 1/83
2024-08-24 12:08:17.071682: I tensorflow/stream_executor/cuda/cuda_dnn.cc:384] Loaded cuDNN version 8100
…
