…
To enable them in other operations, rebuild TensorFlow with the appropriate compiler flags.
2024-08-24 12:20:27.207749: I tensorflow/core/common_runtime/gpu/gpu_device.cc:1616] Created device /job:localhost/replica:0/task:0/device:GPU:0 with 13575 MB memory:  -> device: 0, name: NVIDIA GeForce RTX 4060 Ti, pci bus id: 0000:01:00.0, compute capability: 8.9
1 Physical GPUs, 1 Logical GPUs
Fold:  0
Model: "sequential"
_________________________________________________________________
 Layer (type)                Output Shape              Param #   
=================================================================
 conv2d (Conv2D)             (None, 32, 32, 32)        896       
                                                                 
 conv2d_1 (Conv2D)           (None, 32, 32, 64)        51264     
                                                                 
 conv2d_2 (Conv2D)           (None, 32, 32, 64)        331840    
                                                                 
 max_pooling2d (MaxPooling2D  (None, 16, 16, 64)       0         
 )                                                               
                                                                 
 batch_normalization (BatchN  (None, 16, 16, 64)       256       
 ormalization)                                                   
                                                                 
 dropout (Dropout)           (None, 16, 16, 64)        0         
                                                                 
 flatten (Flatten)           (None, 16384)             0         
                                                                 
 dense (Dense)               (None, 30)                491550    
                                                                 
 dropout_1 (Dropout)         (None, 30)                0         
                                                                 
 dense_1 (Dense)             (None, 10)                310       
                                                                 
=================================================================
Total params: 876,116
Trainable params: 875,988
Non-trainable params: 128
_________________________________________________________________
Taxa de aprendizado:  0.0001 Num de épocas:  198 Tamanho do lote:  32 Dropout:  0.35
Epoch 1/198
2024-08-24 12:20:28.962222: I tensorflow/stream_executor/cuda/cuda_dnn.cc:384] Loaded cuDNN version 8100
…
