…
To enable them in other operations, rebuild TensorFlow with the appropriate compiler flags.
2024-08-24 12:35:43.121923: I tensorflow/core/common_runtime/gpu/gpu_device.cc:1616] Created device /job:localhost/replica:0/task:0/device:GPU:0 with 13575 MB memory:  -> device: 0, name: NVIDIA GeForce RTX 4060 Ti, pci bus id: 0000:01:00.0, compute capability: 8.9
1 Physical GPUs, 1 Logical GPUs
Fold:  0
Model: "sequential"
_________________________________________________________________
 Layer (type)                Output Shape              Param #   
=================================================================
 conv2d (Conv2D)             (None, 32, 32, 32)        896       
                                                                 
 conv2d_1 (Conv2D)           (None, 32, 32, 256)       73984     
                                                                 
 batch_normalization (BatchN  (None, 32, 32, 256)      1024      
 ormalization)                                                   
                                                                 
 conv2d_2 (Conv2D)           (None, 32, 32, 32)        991264    
                                                                 
 max_pooling2d (MaxPooling2D  (None, 16, 16, 32)       0         
 )                                                               
                                                                 
 dropout (Dropout)           (None, 16, 16, 32)        0         
                                                                 
 flatten (Flatten)           (None, 8192)              0         
                                                                 
 dense (Dense)               (None, 42)                344106    
                                                                 
 dropout_1 (Dropout)         (None, 42)                0         
                                                                 
 dense_1 (Dense)             (None, 10)                430       
                                                                 
=================================================================
Total params: 1,411,704
Trainable params: 1,411,192
Non-trainable params: 512
_________________________________________________________________
Taxa de aprendizado:  0.001 Num de épocas:  280 Tamanho do lote:  32 Dropout:  0.19
Epoch 1/280
2024-08-24 12:35:44.414937: I tensorflow/stream_executor/cuda/cuda_dnn.cc:384] Loaded cuDNN version 8100
…
