…
To enable them in other operations, rebuild TensorFlow with the appropriate compiler flags.
2024-08-24 13:37:15.291485: I tensorflow/core/common_runtime/gpu/gpu_device.cc:1616] Created device /job:localhost/replica:0/task:0/device:GPU:0 with 13575 MB memory:  -> device: 0, name: NVIDIA GeForce RTX 4060 Ti, pci bus id: 0000:01:00.0, compute capability: 8.9
1 Physical GPUs, 1 Logical GPUs
Fold:  0
Model: "sequential"
_________________________________________________________________
 Layer (type)                Output Shape              Param #   
=================================================================
 conv2d (Conv2D)             (None, 32, 32, 32)        896       
                                                                 
 max_pooling2d (MaxPooling2D  (None, 16, 16, 32)       0         
 )                                                               
                                                                 
 dropout (Dropout)           (None, 16, 16, 32)        0         
                                                                 
 flatten (Flatten)           (None, 8192)              0         
                                                                 
 dense (Dense)               (None, 50)                409650    
                                                                 
 dropout_1 (Dropout)         (None, 50)                0         
                                                                 
 dense_1 (Dense)             (None, 94)                4794      
                                                                 
 dropout_2 (Dropout)         (None, 94)                0         
                                                                 
 dense_2 (Dense)             (None, 10)                950       
                                                                 
=================================================================
Total params: 416,290
Trainable params: 416,290
Non-trainable params: 0
_________________________________________________________________
Taxa de aprendizado:  0.01 Num de épocas:  140 Tamanho do lote:  256 Dropout:  0.32
Epoch 1/140
2024-08-24 13:37:16.671432: I tensorflow/stream_executor/cuda/cuda_dnn.cc:384] Loaded cuDNN version 8100
…
