…
To enable them in other operations, rebuild TensorFlow with the appropriate compiler flags.
2024-08-24 10:26:40.009261: I tensorflow/core/common_runtime/gpu/gpu_device.cc:1616] Created device /job:localhost/replica:0/task:0/device:GPU:0 with 13575 MB memory:  -> device: 0, name: NVIDIA GeForce RTX 4060 Ti, pci bus id: 0000:01:00.0, compute capability: 8.9
1 Physical GPUs, 1 Logical GPUs
Fold:  6
Model: "sequential"
_________________________________________________________________
 Layer (type)                Output Shape              Param #   
=================================================================
 conv2d (Conv2D)             (None, 32, 32, 32)        896       
                                                                 
 max_pooling2d (MaxPooling2D  (None, 16, 16, 32)       0         
 )                                                               
                                                                 
 conv2d_1 (Conv2D)           (None, 16, 16, 64)        100416    
                                                                 
 dropout (Dropout)           (None, 16, 16, 64)        0         
                                                                 
 flatten (Flatten)           (None, 16384)             0         
                                                                 
 dense (Dense)               (None, 72)                1179720   
                                                                 
 dropout_1 (Dropout)         (None, 72)                0         
                                                                 
 dense_1 (Dense)             (None, 56)                4088      
                                                                 
 dropout_2 (Dropout)         (None, 56)                0         
                                                                 
 dense_2 (Dense)             (None, 10)                570       
                                                                 
=================================================================
Total params: 1,285,690
Trainable params: 1,285,690
Non-trainable params: 0
_________________________________________________________________
Taxa de aprendizado:  0.01 Num de épocas:  149 Tamanho do lote:  32 Dropout:  0.37
Epoch 1/149
2024-08-24 10:26:41.398836: I tensorflow/stream_executor/cuda/cuda_dnn.cc:384] Loaded cuDNN version 8100
…
