…
To enable them in other operations, rebuild TensorFlow with the appropriate compiler flags.
2024-08-24 14:43:35.990490: I tensorflow/core/common_runtime/gpu/gpu_device.cc:1616] Created device /job:localhost/replica:0/task:0/device:GPU:0 with 13575 MB memory:  -> device: 0, name: NVIDIA GeForce RTX 4060 Ti, pci bus id: 0000:01:00.0, compute capability: 8.9
1 Physical GPUs, 1 Logical GPUs
Fold:  0
Model: "sequential"
_________________________________________________________________
 Layer (type)                Output Shape              Param #   
=================================================================
 conv2d (Conv2D)             (None, 32, 32, 32)        896       
                                                                 
 conv2d_1 (Conv2D)           (None, 32, 32, 32)        25632     
                                                                 
 max_pooling2d (MaxPooling2D  (None, 16, 16, 32)       0         
 )                                                               
                                                                 
 dropout (Dropout)           (None, 16, 16, 32)        0         
                                                                 
 flatten (Flatten)           (None, 8192)              0         
                                                                 
 dense (Dense)               (None, 112)               917616    
                                                                 
 dropout_1 (Dropout)         (None, 112)               0         
                                                                 
 dense_1 (Dense)             (None, 42)                4746      
                                                                 
 dropout_2 (Dropout)         (None, 42)                0         
                                                                 
 dense_2 (Dense)             (None, 10)                430       
                                                                 
=================================================================
Total params: 949,320
Trainable params: 949,320
Non-trainable params: 0
_________________________________________________________________
Taxa de aprendizado:  1 Num de épocas:  124 Tamanho do lote:  64 Dropout:  0.15
Epoch 1/124
2024-08-24 14:43:37.107789: I tensorflow/stream_executor/cuda/cuda_dnn.cc:384] Loaded cuDNN version 8100
…
