…
To enable them in other operations, rebuild TensorFlow with the appropriate compiler flags.
2024-08-24 16:11:38.005408: I tensorflow/core/common_runtime/gpu/gpu_device.cc:1616] Created device /job:localhost/replica:0/task:0/device:GPU:0 with 13575 MB memory:  -> device: 0, name: NVIDIA GeForce RTX 4060 Ti, pci bus id: 0000:01:00.0, compute capability: 8.9
1 Physical GPUs, 1 Logical GPUs
Fold:  7
Model: "sequential"
_________________________________________________________________
 Layer (type)                Output Shape              Param #   
=================================================================
 conv2d (Conv2D)             (None, 32, 32, 32)        896       
                                                                 
 conv2d_1 (Conv2D)           (None, 32, 32, 64)        51264     
                                                                 
 conv2d_2 (Conv2D)           (None, 32, 32, 64)        331840    
                                                                 
 max_pooling2d (MaxPooling2D  (None, 16, 16, 64)       0         
 )                                                               
                                                                 
 conv2d_3 (Conv2D)           (None, 16, 16, 32)        18464     
                                                                 
 max_pooling2d_1 (MaxPooling  (None, 8, 8, 32)         0         
 2D)                                                             
                                                                 
 dropout (Dropout)           (None, 8, 8, 32)          0         
                                                                 
 flatten (Flatten)           (None, 2048)              0         
                                                                 
 dense (Dense)               (None, 112)               229488    
                                                                 
 dropout_1 (Dropout)         (None, 112)               0         
                                                                 
 dense_1 (Dense)             (None, 106)               11978     
                                                                 
 dropout_2 (Dropout)         (None, 106)               0         
                                                                 
 dense_2 (Dense)             (None, 10)                1070      
                                                                 
=================================================================
Total params: 645,000
Trainable params: 645,000
Non-trainable params: 0
_________________________________________________________________
Taxa de aprendizado:  0.01 Num de épocas:  97 Tamanho do lote:  32 Dropout:  0.04
Epoch 1/97
2024-08-24 16:11:39.875093: I tensorflow/stream_executor/cuda/cuda_dnn.cc:384] Loaded cuDNN version 8100
…
