…
To enable them in other operations, rebuild TensorFlow with the appropriate compiler flags.
2024-08-23 20:29:05.437904: I tensorflow/core/common_runtime/gpu/gpu_device.cc:1616] Created device /job:localhost/replica:0/task:0/device:GPU:0 with 13575 MB memory:  -> device: 0, name: NVIDIA GeForce RTX 4060 Ti, pci bus id: 0000:01:00.0, compute capability: 8.9
1 Physical GPUs, 1 Logical GPUs
Fold:  1
Model: "sequential"
_________________________________________________________________
 Layer (type)                Output Shape              Param #   
=================================================================
 conv2d (Conv2D)             (None, 32, 32, 32)        896       
                                                                 
 max_pooling2d (MaxPooling2D  (None, 16, 16, 32)       0         
 )                                                               
                                                                 
 batch_normalization (BatchN  (None, 16, 16, 32)       128       
 ormalization)                                                   
                                                                 
 conv2d_1 (Conv2D)           (None, 16, 16, 32)        9248      
                                                                 
 batch_normalization_1 (Batc  (None, 16, 16, 32)       128       
 hNormalization)                                                 
                                                                 
 dropout (Dropout)           (None, 16, 16, 32)        0         
                                                                 
 flatten (Flatten)           (None, 8192)              0         
                                                                 
 dense (Dense)               (None, 108)               884844    
                                                                 
 dropout_1 (Dropout)         (None, 108)               0         
                                                                 
 dense_1 (Dense)             (None, 10)                1090      
                                                                 
=================================================================
Total params: 896,334
Trainable params: 896,206
Non-trainable params: 128
_________________________________________________________________
Taxa de aprendizado:  1 Num de épocas:  73 Tamanho do lote:  512 Dropout:  0.42
Epoch 1/73
2024-08-23 20:29:06.927034: I tensorflow/stream_executor/cuda/cuda_dnn.cc:384] Loaded cuDNN version 8100
…
