…
To enable them in other operations, rebuild TensorFlow with the appropriate compiler flags.
2024-08-24 19:28:37.822207: I tensorflow/core/common_runtime/gpu/gpu_device.cc:1616] Created device /job:localhost/replica:0/task:0/device:GPU:0 with 13575 MB memory:  -> device: 0, name: NVIDIA GeForce RTX 4060 Ti, pci bus id: 0000:01:00.0, compute capability: 8.9
1 Physical GPUs, 1 Logical GPUs
Fold:  7
Model: "sequential"
_________________________________________________________________
 Layer (type)                Output Shape              Param #   
=================================================================
 conv2d (Conv2D)             (None, 32, 32, 32)        896       
                                                                 
 dropout (Dropout)           (None, 32, 32, 32)        0         
                                                                 
 flatten (Flatten)           (None, 32768)             0         
                                                                 
 dense (Dense)               (None, 118)               3866742   
                                                                 
 dropout_1 (Dropout)         (None, 118)               0         
                                                                 
 dense_1 (Dense)             (None, 106)               12614     
                                                                 
 dropout_2 (Dropout)         (None, 106)               0         
                                                                 
 dense_2 (Dense)             (None, 10)                1070      
                                                                 
=================================================================
Total params: 3,881,322
Trainable params: 3,881,322
Non-trainable params: 0
_________________________________________________________________
Taxa de aprendizado:  0.0001 Num de épocas:  273 Tamanho do lote:  256 Dropout:  0.36
Epoch 1/273
2024-08-24 19:28:40.171490: I tensorflow/stream_executor/cuda/cuda_dnn.cc:384] Loaded cuDNN version 8100
…
