…
To enable them in other operations, rebuild TensorFlow with the appropriate compiler flags.
2024-08-25 00:25:36.994333: I tensorflow/core/common_runtime/gpu/gpu_device.cc:1616] Created device /job:localhost/replica:0/task:0/device:GPU:0 with 13575 MB memory:  -> device: 0, name: NVIDIA GeForce RTX 4060 Ti, pci bus id: 0000:01:00.0, compute capability: 8.9
1 Physical GPUs, 1 Logical GPUs
Fold:  0
Model: "sequential"
_________________________________________________________________
 Layer (type)                Output Shape              Param #   
=================================================================
 conv2d (Conv2D)             (None, 32, 32, 32)        896       
                                                                 
 dropout (Dropout)           (None, 32, 32, 32)        0         
                                                                 
 flatten (Flatten)           (None, 32768)             0         
                                                                 
 dense (Dense)               (None, 110)               3604590   
                                                                 
 dropout_1 (Dropout)         (None, 110)               0         
                                                                 
 dense_1 (Dense)             (None, 56)                6216      
                                                                 
 dropout_2 (Dropout)         (None, 56)                0         
                                                                 
 dense_2 (Dense)             (None, 10)                570       
                                                                 
=================================================================
Total params: 3,612,272
Trainable params: 3,612,272
Non-trainable params: 0
_________________________________________________________________
Taxa de aprendizado:  0.1 Num de épocas:  175 Tamanho do lote:  16 Dropout:  0.48
Epoch 1/175
2024-08-25 00:25:38.933563: I tensorflow/stream_executor/cuda/cuda_dnn.cc:384] Loaded cuDNN version 8100
…
