…
To enable them in other operations, rebuild TensorFlow with the appropriate compiler flags.
2024-08-24 19:25:01.540663: I tensorflow/core/common_runtime/gpu/gpu_device.cc:1616] Created device /job:localhost/replica:0/task:0/device:GPU:0 with 13575 MB memory:  -> device: 0, name: NVIDIA GeForce RTX 4060 Ti, pci bus id: 0000:01:00.0, compute capability: 8.9
1 Physical GPUs, 1 Logical GPUs
Fold:  7
Model: "sequential"
_________________________________________________________________
 Layer (type)                Output Shape              Param #   
=================================================================
 conv2d (Conv2D)             (None, 32, 32, 32)        896       
                                                                 
 conv2d_1 (Conv2D)           (None, 32, 32, 32)        50208     
                                                                 
 conv2d_2 (Conv2D)           (None, 32, 32, 64)        247872    
                                                                 
 conv2d_3 (Conv2D)           (None, 32, 32, 128)       991360    
                                                                 
 batch_normalization (BatchN  (None, 32, 32, 128)      512       
 ormalization)                                                   
                                                                 
 conv2d_4 (Conv2D)           (None, 32, 32, 256)       295168    
                                                                 
 dropout (Dropout)           (None, 32, 32, 256)       0         
                                                                 
 flatten (Flatten)           (None, 262144)            0         
                                                                 
 dense (Dense)               (None, 100)               26214500  
                                                                 
 dropout_1 (Dropout)         (None, 100)               0         
                                                                 
 dense_1 (Dense)             (None, 60)                6060      
                                                                 
 dropout_2 (Dropout)         (None, 60)                0         
                                                                 
 dense_2 (Dense)             (None, 10)                610       
                                                                 
=================================================================
Total params: 27,807,186
Trainable params: 27,806,930
Non-trainable params: 256
_________________________________________________________________
Taxa de aprendizado:  0.0001 Num de épocas:  233 Tamanho do lote:  128 Dropout:  0.33
Epoch 1/233
2024-08-24 19:25:02.818924: I tensorflow/stream_executor/cuda/cuda_dnn.cc:384] Loaded cuDNN version 8100
…
