…
To enable them in other operations, rebuild TensorFlow with the appropriate compiler flags.
2024-08-25 04:37:33.362364: I tensorflow/core/common_runtime/gpu/gpu_device.cc:1616] Created device /job:localhost/replica:0/task:0/device:GPU:0 with 13575 MB memory:  -> device: 0, name: NVIDIA GeForce RTX 4060 Ti, pci bus id: 0000:01:00.0, compute capability: 8.9
1 Physical GPUs, 1 Logical GPUs
Fold:  8
Model: "sequential"
_________________________________________________________________
 Layer (type)                Output Shape              Param #   
=================================================================
 conv2d (Conv2D)             (None, 32, 32, 32)        896       
                                                                 
 batch_normalization (BatchN  (None, 32, 32, 32)       128       
 ormalization)                                                   
                                                                 
 conv2d_1 (Conv2D)           (None, 32, 32, 128)       102528    
                                                                 
 dropout (Dropout)           (None, 32, 32, 128)       0         
                                                                 
 flatten (Flatten)           (None, 131072)            0         
                                                                 
 dense (Dense)               (None, 110)               14418030  
                                                                 
 dropout_1 (Dropout)         (None, 110)               0         
                                                                 
 dense_1 (Dense)             (None, 96)                10656     
                                                                 
 dropout_2 (Dropout)         (None, 96)                0         
                                                                 
 dense_2 (Dense)             (None, 10)                970       
                                                                 
=================================================================
Total params: 14,533,208
Trainable params: 14,533,144
Non-trainable params: 64
_________________________________________________________________
Taxa de aprendizado:  0.0001 Num de épocas:  12 Tamanho do lote:  64 Dropout:  0.42
Epoch 1/12
2024-08-25 04:37:35.349105: I tensorflow/stream_executor/cuda/cuda_dnn.cc:384] Loaded cuDNN version 8100
…
