…
To enable them in other operations, rebuild TensorFlow with the appropriate compiler flags.
2024-08-23 21:37:03.703056: I tensorflow/core/common_runtime/gpu/gpu_device.cc:1616] Created device /job:localhost/replica:0/task:0/device:GPU:0 with 13575 MB memory:  -> device: 0, name: NVIDIA GeForce RTX 4060 Ti, pci bus id: 0000:01:00.0, compute capability: 8.9
1 Physical GPUs, 1 Logical GPUs
Fold:  1
Model: "sequential"
_________________________________________________________________
 Layer (type)                Output Shape              Param #   
=================================================================
 conv2d (Conv2D)             (None, 32, 32, 32)        896       
                                                                 
 max_pooling2d (MaxPooling2D  (None, 16, 16, 32)       0         
 )                                                               
                                                                 
 conv2d_1 (Conv2D)           (None, 16, 16, 32)        123936    
                                                                 
 batch_normalization (BatchN  (None, 16, 16, 32)       128       
 ormalization)                                                   
                                                                 
 conv2d_2 (Conv2D)           (None, 16, 16, 256)       663808    
                                                                 
 dropout (Dropout)           (None, 16, 16, 256)       0         
                                                                 
 flatten (Flatten)           (None, 65536)             0         
                                                                 
 dense (Dense)               (None, 86)                5636182   
                                                                 
 dropout_1 (Dropout)         (None, 86)                0         
                                                                 
 dense_1 (Dense)             (None, 52)                4524      
                                                                 
 dropout_2 (Dropout)         (None, 52)                0         
                                                                 
 dense_2 (Dense)             (None, 10)                530       
                                                                 
=================================================================
Total params: 6,430,004
Trainable params: 6,429,940
Non-trainable params: 64
_________________________________________________________________
Taxa de aprendizado:  0.0001 Num de épocas:  76 Tamanho do lote:  512 Dropout:  0.25
Epoch 1/76
2024-08-23 21:37:06.297973: I tensorflow/stream_executor/cuda/cuda_dnn.cc:384] Loaded cuDNN version 8100
…
