…
To enable them in other operations, rebuild TensorFlow with the appropriate compiler flags.
2024-08-26 12:04:14.969359: I tensorflow/core/common_runtime/gpu/gpu_device.cc:1616] Created device /job:localhost/replica:0/task:0/device:GPU:0 with 13575 MB memory:  -> device: 0, name: NVIDIA GeForce RTX 4060 Ti, pci bus id: 0000:01:00.0, compute capability: 8.9
1 Physical GPUs, 1 Logical GPUs
Fold:  1
Model: "sequential"
_________________________________________________________________
 Layer (type)                Output Shape              Param #   
=================================================================
 conv2d (Conv2D)             (None, 32, 32, 32)        896       
                                                                 
 conv2d_1 (Conv2D)           (None, 32, 32, 128)       102528    
                                                                 
 conv2d_2 (Conv2D)           (None, 32, 32, 64)        991296    
                                                                 
 max_pooling2d (MaxPooling2D  (None, 16, 16, 64)       0         
 )                                                               
                                                                 
 conv2d_3 (Conv2D)           (None, 16, 16, 128)       401536    
                                                                 
 max_pooling2d_1 (MaxPooling  (None, 8, 8, 128)        0         
 2D)                                                             
                                                                 
 dropout (Dropout)           (None, 8, 8, 128)         0         
                                                                 
 flatten (Flatten)           (None, 8192)              0         
                                                                 
 dense (Dense)               (None, 102)               835686    
                                                                 
 dropout_1 (Dropout)         (None, 102)               0         
                                                                 
 dense_1 (Dense)             (None, 86)                8858      
                                                                 
 dropout_2 (Dropout)         (None, 86)                0         
                                                                 
 dense_2 (Dense)             (None, 10)                870       
                                                                 
=================================================================
Total params: 2,341,670
Trainable params: 2,341,670
Non-trainable params: 0
_________________________________________________________________
Taxa de aprendizado:  0.0001 Num de épocas:  166 Tamanho do lote:  32 Dropout:  0.48
Epoch 1/166
2024-08-26 12:04:16.641629: I tensorflow/stream_executor/cuda/cuda_dnn.cc:384] Loaded cuDNN version 8100
…
