…
To enable them in other operations, rebuild TensorFlow with the appropriate compiler flags.
2024-08-25 11:59:41.105878: I tensorflow/core/common_runtime/gpu/gpu_device.cc:1616] Created device /job:localhost/replica:0/task:0/device:GPU:0 with 13575 MB memory:  -> device: 0, name: NVIDIA GeForce RTX 4060 Ti, pci bus id: 0000:01:00.0, compute capability: 8.9
1 Physical GPUs, 1 Logical GPUs
Fold:  0
Model: "sequential"
_________________________________________________________________
 Layer (type)                Output Shape              Param #   
=================================================================
 conv2d (Conv2D)             (None, 32, 32, 32)        896       
                                                                 
 dropout (Dropout)           (None, 32, 32, 32)        0         
                                                                 
 flatten (Flatten)           (None, 32768)             0         
                                                                 
 dense (Dense)               (None, 126)               4128894   
                                                                 
 dropout_1 (Dropout)         (None, 126)               0         
                                                                 
 dense_1 (Dense)             (None, 74)                9398      
                                                                 
 dropout_2 (Dropout)         (None, 74)                0         
                                                                 
 dense_2 (Dense)             (None, 10)                750       
                                                                 
=================================================================
Total params: 4,139,938
Trainable params: 4,139,938
Non-trainable params: 0
_________________________________________________________________
Taxa de aprendizado:  0.001 Num de épocas:  136 Tamanho do lote:  128 Dropout:  0.26
Epoch 1/136
2024-08-25 11:59:42.705254: I tensorflow/stream_executor/cuda/cuda_dnn.cc:384] Loaded cuDNN version 8100
…
