…
To enable them in other operations, rebuild TensorFlow with the appropriate compiler flags.
2024-08-25 12:18:20.786148: I tensorflow/core/common_runtime/gpu/gpu_device.cc:1616] Created device /job:localhost/replica:0/task:0/device:GPU:0 with 13575 MB memory:  -> device: 0, name: NVIDIA GeForce RTX 4060 Ti, pci bus id: 0000:01:00.0, compute capability: 8.9
1 Physical GPUs, 1 Logical GPUs
Fold:  0
Model: "sequential"
_________________________________________________________________
 Layer (type)                Output Shape              Param #   
=================================================================
 conv2d (Conv2D)             (None, 32, 32, 32)        896       
                                                                 
 max_pooling2d (MaxPooling2D  (None, 16, 16, 32)       0         
 )                                                               
                                                                 
 conv2d_1 (Conv2D)           (None, 16, 16, 64)        18496     
                                                                 
 conv2d_2 (Conv2D)           (None, 16, 16, 64)        331840    
                                                                 
 max_pooling2d_1 (MaxPooling  (None, 8, 8, 64)         0         
 2D)                                                             
                                                                 
 dropout (Dropout)           (None, 8, 8, 64)          0         
                                                                 
 flatten (Flatten)           (None, 4096)              0         
                                                                 
 dense (Dense)               (None, 68)                278596    
                                                                 
 dropout_1 (Dropout)         (None, 68)                0         
                                                                 
 dense_1 (Dense)             (None, 86)                5934      
                                                                 
 dropout_2 (Dropout)         (None, 86)                0         
                                                                 
 dense_2 (Dense)             (None, 10)                870       
                                                                 
=================================================================
Total params: 636,632
Trainable params: 636,632
Non-trainable params: 0
_________________________________________________________________
Taxa de aprendizado:  1e-05 Num de épocas:  152 Tamanho do lote:  64 Dropout:  0.37
Epoch 1/152
2024-08-25 12:18:22.899521: I tensorflow/stream_executor/cuda/cuda_dnn.cc:384] Loaded cuDNN version 8100
…
