…
To enable them in other operations, rebuild TensorFlow with the appropriate compiler flags.
2024-08-25 13:56:30.656980: I tensorflow/core/common_runtime/gpu/gpu_device.cc:1616] Created device /job:localhost/replica:0/task:0/device:GPU:0 with 13575 MB memory:  -> device: 0, name: NVIDIA GeForce RTX 4060 Ti, pci bus id: 0000:01:00.0, compute capability: 8.9
1 Physical GPUs, 1 Logical GPUs
Fold:  0
Model: "sequential"
_________________________________________________________________
 Layer (type)                Output Shape              Param #   
=================================================================
 conv2d (Conv2D)             (None, 32, 32, 32)        896       
                                                                 
 conv2d_1 (Conv2D)           (None, 32, 32, 256)       73984     
                                                                 
 dropout (Dropout)           (None, 32, 32, 256)       0         
                                                                 
 flatten (Flatten)           (None, 262144)            0         
                                                                 
 dense (Dense)               (None, 94)                24641630  
                                                                 
 dropout_1 (Dropout)         (None, 94)                0         
                                                                 
 dense_1 (Dense)             (None, 126)               11970     
                                                                 
 dropout_2 (Dropout)         (None, 126)               0         
                                                                 
 dense_2 (Dense)             (None, 10)                1270      
                                                                 
=================================================================
Total params: 24,729,750
Trainable params: 24,729,750
Non-trainable params: 0
_________________________________________________________________
Taxa de aprendizado:  0.001 Num de épocas:  108 Tamanho do lote:  32 Dropout:  0.26
Epoch 1/108
2024-08-25 13:56:32.766345: I tensorflow/stream_executor/cuda/cuda_dnn.cc:384] Loaded cuDNN version 8100
…
