…
To enable them in other operations, rebuild TensorFlow with the appropriate compiler flags.
2024-08-25 15:51:21.528831: I tensorflow/core/common_runtime/gpu/gpu_device.cc:1616] Created device /job:localhost/replica:0/task:0/device:GPU:0 with 13575 MB memory:  -> device: 0, name: NVIDIA GeForce RTX 4060 Ti, pci bus id: 0000:01:00.0, compute capability: 8.9
1 Physical GPUs, 1 Logical GPUs
Fold:  0
Model: "sequential"
_________________________________________________________________
 Layer (type)                Output Shape              Param #   
=================================================================
 conv2d (Conv2D)             (None, 32, 32, 32)        896       
                                                                 
 conv2d_1 (Conv2D)           (None, 32, 32, 64)        51264     
                                                                 
 dropout (Dropout)           (None, 32, 32, 64)        0         
                                                                 
 flatten (Flatten)           (None, 65536)             0         
                                                                 
 dense (Dense)               (None, 68)                4456516   
                                                                 
 dropout_1 (Dropout)         (None, 68)                0         
                                                                 
 dense_1 (Dense)             (None, 10)                690       
                                                                 
=================================================================
Total params: 4,509,366
Trainable params: 4,509,366
Non-trainable params: 0
_________________________________________________________________
Taxa de aprendizado:  0.0001 Num de épocas:  122 Tamanho do lote:  128 Dropout:  0.39
Epoch 1/122
2024-08-25 15:51:23.178893: I tensorflow/stream_executor/cuda/cuda_dnn.cc:384] Loaded cuDNN version 8100
…
