…
To enable them in other operations, rebuild TensorFlow with the appropriate compiler flags.
2024-08-26 00:06:09.578731: I tensorflow/core/common_runtime/gpu/gpu_device.cc:1616] Created device /job:localhost/replica:0/task:0/device:GPU:0 with 13575 MB memory:  -> device: 0, name: NVIDIA GeForce RTX 4060 Ti, pci bus id: 0000:01:00.0, compute capability: 8.9
1 Physical GPUs, 1 Logical GPUs
Fold:  0
Model: "sequential"
_________________________________________________________________
 Layer (type)                Output Shape              Param #   
=================================================================
 conv2d (Conv2D)             (None, 32, 32, 32)        896       
                                                                 
 conv2d_1 (Conv2D)           (None, 32, 32, 64)        18496     
                                                                 
 batch_normalization (BatchN  (None, 32, 32, 64)       256       
 ormalization)                                                   
                                                                 
 conv2d_2 (Conv2D)           (None, 32, 32, 32)        100384    
                                                                 
 max_pooling2d (MaxPooling2D  (None, 16, 16, 32)       0         
 )                                                               
                                                                 
 conv2d_3 (Conv2D)           (None, 16, 16, 128)       36992     
                                                                 
 max_pooling2d_1 (MaxPooling  (None, 8, 8, 128)        0         
 2D)                                                             
                                                                 
 conv2d_4 (Conv2D)           (None, 8, 8, 32)          331808    
                                                                 
 batch_normalization_1 (Batc  (None, 8, 8, 32)         128       
 hNormalization)                                                 
                                                                 
 dropout (Dropout)           (None, 8, 8, 32)          0         
                                                                 
 flatten (Flatten)           (None, 2048)              0         
                                                                 
 dense (Dense)               (None, 118)               241782    
                                                                 
 dropout_1 (Dropout)         (None, 118)               0         
                                                                 
 dense_1 (Dense)             (None, 10)                1190      
                                                                 
=================================================================
Total params: 731,932
Trainable params: 731,740
Non-trainable params: 192
_________________________________________________________________
Taxa de aprendizado:  0.0001 Num de épocas:  61 Tamanho do lote:  128 Dropout:  0.28
Epoch 1/61
2024-08-26 00:06:11.105505: I tensorflow/stream_executor/cuda/cuda_dnn.cc:384] Loaded cuDNN version 8100
…
