…
To enable them in other operations, rebuild TensorFlow with the appropriate compiler flags.
2024-08-25 15:58:09.826338: I tensorflow/core/common_runtime/gpu/gpu_device.cc:1616] Created device /job:localhost/replica:0/task:0/device:GPU:0 with 13575 MB memory:  -> device: 0, name: NVIDIA GeForce RTX 4060 Ti, pci bus id: 0000:01:00.0, compute capability: 8.9
1 Physical GPUs, 1 Logical GPUs
Fold:  9
Model: "sequential"
_________________________________________________________________
 Layer (type)                Output Shape              Param #   
=================================================================
 conv2d (Conv2D)             (None, 32, 32, 32)        896       
                                                                 
 dropout (Dropout)           (None, 32, 32, 32)        0         
                                                                 
 flatten (Flatten)           (None, 32768)             0         
                                                                 
 dense (Dense)               (None, 120)               3932280   
                                                                 
 dropout_1 (Dropout)         (None, 120)               0         
                                                                 
 dense_1 (Dense)             (None, 92)                11132     
                                                                 
 dropout_2 (Dropout)         (None, 92)                0         
                                                                 
 dense_2 (Dense)             (None, 10)                930       
                                                                 
=================================================================
Total params: 3,945,238
Trainable params: 3,945,238
Non-trainable params: 0
_________________________________________________________________
Taxa de aprendizado:  0.01 Num de épocas:  174 Tamanho do lote:  16 Dropout:  0.49
Epoch 1/174
2024-08-25 15:58:11.092194: I tensorflow/stream_executor/cuda/cuda_dnn.cc:384] Loaded cuDNN version 8100
…
