…
To enable them in other operations, rebuild TensorFlow with the appropriate compiler flags.
2024-08-25 16:37:24.448617: I tensorflow/core/common_runtime/gpu/gpu_device.cc:1616] Created device /job:localhost/replica:0/task:0/device:GPU:0 with 13575 MB memory:  -> device: 0, name: NVIDIA GeForce RTX 4060 Ti, pci bus id: 0000:01:00.0, compute capability: 8.9
1 Physical GPUs, 1 Logical GPUs
Fold:  9
Model: "sequential"
_________________________________________________________________
 Layer (type)                Output Shape              Param #   
=================================================================
 conv2d (Conv2D)             (None, 32, 32, 32)        896       
                                                                 
 conv2d_1 (Conv2D)           (None, 32, 32, 64)        18496     
                                                                 
 dropout (Dropout)           (None, 32, 32, 64)        0         
                                                                 
 flatten (Flatten)           (None, 65536)             0         
                                                                 
 dense (Dense)               (None, 98)                6422626   
                                                                 
 dropout_1 (Dropout)         (None, 98)                0         
                                                                 
 dense_1 (Dense)             (None, 126)               12474     
                                                                 
 dropout_2 (Dropout)         (None, 126)               0         
                                                                 
 dense_2 (Dense)             (None, 10)                1270      
                                                                 
=================================================================
Total params: 6,455,762
Trainable params: 6,455,762
Non-trainable params: 0
_________________________________________________________________
Taxa de aprendizado:  1e-05 Num de épocas:  157 Tamanho do lote:  16 Dropout:  0.47
Epoch 1/157
2024-08-25 16:37:26.251886: I tensorflow/stream_executor/cuda/cuda_dnn.cc:384] Loaded cuDNN version 8100
…
