…
To enable them in other operations, rebuild TensorFlow with the appropriate compiler flags.
2024-08-25 18:50:31.126489: I tensorflow/core/common_runtime/gpu/gpu_device.cc:1616] Created device /job:localhost/replica:0/task:0/device:GPU:0 with 13575 MB memory:  -> device: 0, name: NVIDIA GeForce RTX 4060 Ti, pci bus id: 0000:01:00.0, compute capability: 8.9
1 Physical GPUs, 1 Logical GPUs
Fold:  9
Model: "sequential"
_________________________________________________________________
 Layer (type)                Output Shape              Param #   
=================================================================
 conv2d (Conv2D)             (None, 32, 32, 32)        896       
                                                                 
 conv2d_1 (Conv2D)           (None, 32, 32, 32)        25632     
                                                                 
 conv2d_2 (Conv2D)           (None, 32, 32, 32)        123936    
                                                                 
 max_pooling2d (MaxPooling2D  (None, 16, 16, 32)       0         
 )                                                               
                                                                 
 conv2d_3 (Conv2D)           (None, 16, 16, 64)        18496     
                                                                 
 batch_normalization (BatchN  (None, 16, 16, 64)       256       
 ormalization)                                                   
                                                                 
 dropout (Dropout)           (None, 16, 16, 64)        0         
                                                                 
 flatten (Flatten)           (None, 16384)             0         
                                                                 
 dense (Dense)               (None, 58)                950330    
                                                                 
 dropout_1 (Dropout)         (None, 58)                0         
                                                                 
 dense_1 (Dense)             (None, 112)               6608      
                                                                 
 dropout_2 (Dropout)         (None, 112)               0         
                                                                 
 dense_2 (Dense)             (None, 10)                1130      
                                                                 
=================================================================
Total params: 1,127,284
Trainable params: 1,127,156
Non-trainable params: 128
_________________________________________________________________
Taxa de aprendizado:  1e-05 Num de épocas:  198 Tamanho do lote:  64 Dropout:  0.48
Epoch 1/198
2024-08-25 18:50:32.970706: I tensorflow/stream_executor/cuda/cuda_dnn.cc:384] Loaded cuDNN version 8100
…
