…
To enable them in other operations, rebuild TensorFlow with the appropriate compiler flags.
2024-08-25 21:54:29.088882: I tensorflow/core/common_runtime/gpu/gpu_device.cc:1616] Created device /job:localhost/replica:0/task:0/device:GPU:0 with 13575 MB memory:  -> device: 0, name: NVIDIA GeForce RTX 4060 Ti, pci bus id: 0000:01:00.0, compute capability: 8.9
1 Physical GPUs, 1 Logical GPUs
Fold:  9
Model: "sequential"
_________________________________________________________________
 Layer (type)                Output Shape              Param #   
=================================================================
 conv2d (Conv2D)             (None, 32, 32, 32)        896       
                                                                 
 dropout (Dropout)           (None, 32, 32, 32)        0         
                                                                 
 flatten (Flatten)           (None, 32768)             0         
                                                                 
 dense (Dense)               (None, 112)               3670128   
                                                                 
 dropout_1 (Dropout)         (None, 112)               0         
                                                                 
 dense_1 (Dense)             (None, 120)               13560     
                                                                 
 dropout_2 (Dropout)         (None, 120)               0         
                                                                 
 dense_2 (Dense)             (None, 10)                1210      
                                                                 
=================================================================
Total params: 3,685,794
Trainable params: 3,685,794
Non-trainable params: 0
_________________________________________________________________
Taxa de aprendizado:  0.0001 Num de épocas:  299 Tamanho do lote:  64 Dropout:  0.21
Epoch 1/299
2024-08-25 21:54:31.310110: I tensorflow/stream_executor/cuda/cuda_dnn.cc:384] Loaded cuDNN version 8100
…
