…
To enable them in other operations, rebuild TensorFlow with the appropriate compiler flags.
2024-08-26 12:46:40.000565: I tensorflow/core/common_runtime/gpu/gpu_device.cc:1616] Created device /job:localhost/replica:0/task:0/device:GPU:0 with 13575 MB memory:  -> device: 0, name: NVIDIA GeForce RTX 4060 Ti, pci bus id: 0000:01:00.0, compute capability: 8.9
1 Physical GPUs, 1 Logical GPUs
Fold:  1
Model: "sequential"
_________________________________________________________________
 Layer (type)                Output Shape              Param #   
=================================================================
 conv2d (Conv2D)             (None, 32, 32, 32)        896       
                                                                 
 dropout (Dropout)           (None, 32, 32, 32)        0         
                                                                 
 flatten (Flatten)           (None, 32768)             0         
                                                                 
 dense (Dense)               (None, 120)               3932280   
                                                                 
 dropout_1 (Dropout)         (None, 120)               0         
                                                                 
 dense_1 (Dense)             (None, 104)               12584     
                                                                 
 dropout_2 (Dropout)         (None, 104)               0         
                                                                 
 dense_2 (Dense)             (None, 10)                1050      
                                                                 
=================================================================
Total params: 3,946,810
Trainable params: 3,946,810
Non-trainable params: 0
_________________________________________________________________
Taxa de aprendizado:  0.001 Num de épocas:  152 Tamanho do lote:  32 Dropout:  0.42
Epoch 1/152
2024-08-26 12:46:41.540418: I tensorflow/stream_executor/cuda/cuda_dnn.cc:384] Loaded cuDNN version 8100
…
