…
To enable them in other operations, rebuild TensorFlow with the appropriate compiler flags.
2024-08-26 12:06:27.213293: I tensorflow/core/common_runtime/gpu/gpu_device.cc:1616] Created device /job:localhost/replica:0/task:0/device:GPU:0 with 13575 MB memory:  -> device: 0, name: NVIDIA GeForce RTX 4060 Ti, pci bus id: 0000:01:00.0, compute capability: 8.9
1 Physical GPUs, 1 Logical GPUs
Fold:  1
Model: "sequential"
_________________________________________________________________
 Layer (type)                Output Shape              Param #   
=================================================================
 conv2d (Conv2D)             (None, 32, 32, 32)        896       
                                                                 
 conv2d_1 (Conv2D)           (None, 32, 32, 128)       36992     
                                                                 
 conv2d_2 (Conv2D)           (None, 32, 32, 64)        991296    
                                                                 
 max_pooling2d (MaxPooling2D  (None, 16, 16, 64)       0         
 )                                                               
                                                                 
 conv2d_3 (Conv2D)           (None, 16, 16, 64)        331840    
                                                                 
 dropout (Dropout)           (None, 16, 16, 64)        0         
                                                                 
 flatten (Flatten)           (None, 16384)             0         
                                                                 
 dense (Dense)               (None, 108)               1769580   
                                                                 
 dropout_1 (Dropout)         (None, 108)               0         
                                                                 
 dense_1 (Dense)             (None, 118)               12862     
                                                                 
 dropout_2 (Dropout)         (None, 118)               0         
                                                                 
 dense_2 (Dense)             (None, 10)                1190      
                                                                 
=================================================================
Total params: 3,144,656
Trainable params: 3,144,656
Non-trainable params: 0
_________________________________________________________________
Taxa de aprendizado:  0.001 Num de épocas:  108 Tamanho do lote:  16 Dropout:  0.34
Epoch 1/108
2024-08-26 12:06:29.247587: I tensorflow/stream_executor/cuda/cuda_dnn.cc:384] Loaded cuDNN version 8100
…
