…
To enable them in other operations, rebuild TensorFlow with the appropriate compiler flags.
2024-08-26 12:27:00.712794: I tensorflow/core/common_runtime/gpu/gpu_device.cc:1616] Created device /job:localhost/replica:0/task:0/device:GPU:0 with 13575 MB memory:  -> device: 0, name: NVIDIA GeForce RTX 4060 Ti, pci bus id: 0000:01:00.0, compute capability: 8.9
1 Physical GPUs, 1 Logical GPUs
Fold:  1
Model: "sequential"
_________________________________________________________________
 Layer (type)                Output Shape              Param #   
=================================================================
 conv2d (Conv2D)             (None, 32, 32, 32)        896       
                                                                 
 conv2d_1 (Conv2D)           (None, 32, 32, 128)       36992     
                                                                 
 dropout (Dropout)           (None, 32, 32, 128)       0         
                                                                 
 flatten (Flatten)           (None, 131072)            0         
                                                                 
 dense (Dense)               (None, 90)                11796570  
                                                                 
 dropout_1 (Dropout)         (None, 90)                0         
                                                                 
 dense_1 (Dense)             (None, 120)               10920     
                                                                 
 dropout_2 (Dropout)         (None, 120)               0         
                                                                 
 dense_2 (Dense)             (None, 10)                1210      
                                                                 
=================================================================
Total params: 11,846,588
Trainable params: 11,846,588
Non-trainable params: 0
_________________________________________________________________
Taxa de aprendizado:  1e-05 Num de épocas:  169 Tamanho do lote:  32 Dropout:  0.45
Epoch 1/169
2024-08-26 12:27:02.609994: I tensorflow/stream_executor/cuda/cuda_dnn.cc:384] Loaded cuDNN version 8100
…
