…
To enable them in other operations, rebuild TensorFlow with the appropriate compiler flags.
2024-08-26 08:55:10.144585: I tensorflow/core/common_runtime/gpu/gpu_device.cc:1616] Created device /job:localhost/replica:0/task:0/device:GPU:0 with 13575 MB memory:  -> device: 0, name: NVIDIA GeForce RTX 4060 Ti, pci bus id: 0000:01:00.0, compute capability: 8.9
1 Physical GPUs, 1 Logical GPUs
Fold:  0
Model: "sequential"
_________________________________________________________________
 Layer (type)                Output Shape              Param #   
=================================================================
 conv2d (Conv2D)             (None, 32, 32, 32)        896       
                                                                 
 conv2d_1 (Conv2D)           (None, 32, 32, 256)       73984     
                                                                 
 conv2d_2 (Conv2D)           (None, 32, 32, 32)        991264    
                                                                 
 max_pooling2d (MaxPooling2D  (None, 16, 16, 32)       0         
 )                                                               
                                                                 
 conv2d_3 (Conv2D)           (None, 16, 16, 128)       495744    
                                                                 
 max_pooling2d_1 (MaxPooling  (None, 8, 8, 128)        0         
 2D)                                                             
                                                                 
 dropout (Dropout)           (None, 8, 8, 128)         0         
                                                                 
 flatten (Flatten)           (None, 8192)              0         
                                                                 
 dense (Dense)               (None, 84)                688212    
                                                                 
 dropout_1 (Dropout)         (None, 84)                0         
                                                                 
 dense_1 (Dense)             (None, 96)                8160      
                                                                 
 dropout_2 (Dropout)         (None, 96)                0         
                                                                 
 dense_2 (Dense)             (None, 10)                970       
                                                                 
=================================================================
Total params: 2,259,230
Trainable params: 2,259,230
Non-trainable params: 0
_________________________________________________________________
Taxa de aprendizado:  0.0001 Num de épocas:  197 Tamanho do lote:  64 Dropout:  0.42
Epoch 1/197
2024-08-26 08:55:11.691251: I tensorflow/stream_executor/cuda/cuda_dnn.cc:384] Loaded cuDNN version 8100
…
