…
To enable them in other operations, rebuild TensorFlow with the appropriate compiler flags.
2024-08-26 10:04:20.287726: I tensorflow/core/common_runtime/gpu/gpu_device.cc:1616] Created device /job:localhost/replica:0/task:0/device:GPU:0 with 13575 MB memory:  -> device: 0, name: NVIDIA GeForce RTX 4060 Ti, pci bus id: 0000:01:00.0, compute capability: 8.9
1 Physical GPUs, 1 Logical GPUs
Fold:  0
Model: "sequential"
_________________________________________________________________
 Layer (type)                Output Shape              Param #   
=================================================================
 conv2d (Conv2D)             (None, 32, 32, 32)        896       
                                                                 
 conv2d_1 (Conv2D)           (None, 32, 32, 64)        18496     
                                                                 
 dropout (Dropout)           (None, 32, 32, 64)        0         
                                                                 
 flatten (Flatten)           (None, 65536)             0         
                                                                 
 dense (Dense)               (None, 48)                3145776   
                                                                 
 dropout_1 (Dropout)         (None, 48)                0         
                                                                 
 dense_1 (Dense)             (None, 10)                490       
                                                                 
=================================================================
Total params: 3,165,658
Trainable params: 3,165,658
Non-trainable params: 0
_________________________________________________________________
Taxa de aprendizado:  1e-05 Num de épocas:  104 Tamanho do lote:  64 Dropout:  0.38
Epoch 1/104
2024-08-26 10:04:21.722196: I tensorflow/stream_executor/cuda/cuda_dnn.cc:384] Loaded cuDNN version 8100
…
