…
To enable them in other operations, rebuild TensorFlow with the appropriate compiler flags.
2024-08-26 14:41:28.842030: I tensorflow/core/common_runtime/gpu/gpu_device.cc:1616] Created device /job:localhost/replica:0/task:0/device:GPU:0 with 13575 MB memory:  -> device: 0, name: NVIDIA GeForce RTX 4060 Ti, pci bus id: 0000:01:00.0, compute capability: 8.9
1 Physical GPUs, 1 Logical GPUs
Fold:  1
Model: "sequential"
_________________________________________________________________
 Layer (type)                Output Shape              Param #   
=================================================================
 conv2d (Conv2D)             (None, 32, 32, 32)        896       
                                                                 
 conv2d_1 (Conv2D)           (None, 32, 32, 256)       401664    
                                                                 
 conv2d_2 (Conv2D)           (None, 32, 32, 32)        991264    
                                                                 
 max_pooling2d (MaxPooling2D  (None, 16, 16, 32)       0         
 )                                                               
                                                                 
 conv2d_3 (Conv2D)           (None, 16, 16, 64)        51264     
                                                                 
 batch_normalization (BatchN  (None, 16, 16, 64)       256       
 ormalization)                                                   
                                                                 
 dropout (Dropout)           (None, 16, 16, 64)        0         
                                                                 
 flatten (Flatten)           (None, 16384)             0         
                                                                 
 dense (Dense)               (None, 120)               1966200   
                                                                 
 dropout_1 (Dropout)         (None, 120)               0         
                                                                 
 dense_1 (Dense)             (None, 10)                1210      
                                                                 
=================================================================
Total params: 3,412,754
Trainable params: 3,412,626
Non-trainable params: 128
_________________________________________________________________
Taxa de aprendizado:  1e-05 Num de épocas:  83 Tamanho do lote:  128 Dropout:  0.38
Epoch 1/83
2024-08-26 14:41:30.384816: I tensorflow/stream_executor/cuda/cuda_dnn.cc:384] Loaded cuDNN version 8100
…
