…
To enable them in other operations, rebuild TensorFlow with the appropriate compiler flags.
2024-08-26 10:42:26.649428: I tensorflow/core/common_runtime/gpu/gpu_device.cc:1616] Created device /job:localhost/replica:0/task:0/device:GPU:0 with 13575 MB memory:  -> device: 0, name: NVIDIA GeForce RTX 4060 Ti, pci bus id: 0000:01:00.0, compute capability: 8.9
1 Physical GPUs, 1 Logical GPUs
Fold:  0
Model: "sequential"
_________________________________________________________________
 Layer (type)                Output Shape              Param #   
=================================================================
 conv2d (Conv2D)             (None, 32, 32, 32)        896       
                                                                 
 conv2d_1 (Conv2D)           (None, 32, 32, 128)       36992     
                                                                 
 conv2d_2 (Conv2D)           (None, 32, 32, 32)        495648    
                                                                 
 max_pooling2d (MaxPooling2D  (None, 16, 16, 32)       0         
 )                                                               
                                                                 
 conv2d_3 (Conv2D)           (None, 16, 16, 32)        25632     
                                                                 
 batch_normalization (BatchN  (None, 16, 16, 32)       128       
 ormalization)                                                   
                                                                 
 dropout (Dropout)           (None, 16, 16, 32)        0         
                                                                 
 flatten (Flatten)           (None, 8192)              0         
                                                                 
 dense (Dense)               (None, 96)                786528    
                                                                 
 dropout_1 (Dropout)         (None, 96)                0         
                                                                 
 dense_1 (Dense)             (None, 94)                9118      
                                                                 
 dropout_2 (Dropout)         (None, 94)                0         
                                                                 
 dense_2 (Dense)             (None, 10)                950       
                                                                 
=================================================================
Total params: 1,355,892
Trainable params: 1,355,828
Non-trainable params: 64
_________________________________________________________________
Taxa de aprendizado:  0.0001 Num de épocas:  155 Tamanho do lote:  32 Dropout:  0.45
Epoch 1/155
2024-08-26 10:42:29.153168: I tensorflow/stream_executor/cuda/cuda_dnn.cc:384] Loaded cuDNN version 8100
…
