…
To enable them in other operations, rebuild TensorFlow with the appropriate compiler flags.
2024-08-26 21:17:51.914765: I tensorflow/core/common_runtime/gpu/gpu_device.cc:1616] Created device /job:localhost/replica:0/task:0/device:GPU:0 with 13575 MB memory:  -> device: 0, name: NVIDIA GeForce RTX 4060 Ti, pci bus id: 0000:01:00.0, compute capability: 8.9
1 Physical GPUs, 1 Logical GPUs
Fold:  1
Model: "sequential"
_________________________________________________________________
 Layer (type)                Output Shape              Param #   
=================================================================
 conv2d (Conv2D)             (None, 32, 32, 32)        896       
                                                                 
 conv2d_1 (Conv2D)           (None, 32, 32, 128)       36992     
                                                                 
 conv2d_2 (Conv2D)           (None, 32, 32, 32)        495648    
                                                                 
 max_pooling2d (MaxPooling2D  (None, 16, 16, 32)       0         
 )                                                               
                                                                 
 conv2d_3 (Conv2D)           (None, 16, 16, 256)       205056    
                                                                 
 batch_normalization (BatchN  (None, 16, 16, 256)      1024      
 ormalization)                                                   
                                                                 
 dropout (Dropout)           (None, 16, 16, 256)       0         
                                                                 
 flatten (Flatten)           (None, 65536)             0         
                                                                 
 dense (Dense)               (None, 92)                6029404   
                                                                 
 dropout_1 (Dropout)         (None, 92)                0         
                                                                 
 dense_1 (Dense)             (None, 10)                930       
                                                                 
=================================================================
Total params: 6,769,950
Trainable params: 6,769,438
Non-trainable params: 512
_________________________________________________________________
Taxa de aprendizado:  0.0001 Num de épocas:  174 Tamanho do lote:  16 Dropout:  0.33
Epoch 1/174
2024-08-26 21:17:53.805784: I tensorflow/stream_executor/cuda/cuda_dnn.cc:384] Loaded cuDNN version 8100
…
