…
To enable them in other operations, rebuild TensorFlow with the appropriate compiler flags.
2024-08-27 01:41:34.943210: I tensorflow/core/common_runtime/gpu/gpu_device.cc:1616] Created device /job:localhost/replica:0/task:0/device:GPU:0 with 13575 MB memory:  -> device: 0, name: NVIDIA GeForce RTX 4060 Ti, pci bus id: 0000:01:00.0, compute capability: 8.9
1 Physical GPUs, 1 Logical GPUs
Fold:  1
Model: "sequential"
_________________________________________________________________
 Layer (type)                Output Shape              Param #   
=================================================================
 conv2d (Conv2D)             (None, 32, 32, 32)        896       
                                                                 
 conv2d_1 (Conv2D)           (None, 32, 32, 256)       73984     
                                                                 
 dropout (Dropout)           (None, 32, 32, 256)       0         
                                                                 
 flatten (Flatten)           (None, 262144)            0         
                                                                 
 dense (Dense)               (None, 108)               28311660  
                                                                 
 dropout_1 (Dropout)         (None, 108)               0         
                                                                 
 dense_1 (Dense)             (None, 120)               13080     
                                                                 
 dropout_2 (Dropout)         (None, 120)               0         
                                                                 
 dense_2 (Dense)             (None, 10)                1210      
                                                                 
=================================================================
Total params: 28,400,830
Trainable params: 28,400,830
Non-trainable params: 0
_________________________________________________________________
Taxa de aprendizado:  0.001 Num de épocas:  106 Tamanho do lote:  32 Dropout:  0.41
Epoch 1/106
2024-08-27 01:41:37.185325: I tensorflow/stream_executor/cuda/cuda_dnn.cc:384] Loaded cuDNN version 8100
…
