…
To enable them in other operations, rebuild TensorFlow with the appropriate compiler flags.
2024-08-26 23:21:06.057495: I tensorflow/core/common_runtime/gpu/gpu_device.cc:1616] Created device /job:localhost/replica:0/task:0/device:GPU:0 with 13575 MB memory:  -> device: 0, name: NVIDIA GeForce RTX 4060 Ti, pci bus id: 0000:01:00.0, compute capability: 8.9
1 Physical GPUs, 1 Logical GPUs
Fold:  0
Model: "sequential"
_________________________________________________________________
 Layer (type)                Output Shape              Param #   
=================================================================
 conv2d (Conv2D)             (None, 32, 32, 32)        896       
                                                                 
 dropout (Dropout)           (None, 32, 32, 32)        0         
                                                                 
 flatten (Flatten)           (None, 32768)             0         
                                                                 
 dense (Dense)               (None, 90)                2949210   
                                                                 
 dropout_1 (Dropout)         (None, 90)                0         
                                                                 
 dense_1 (Dense)             (None, 108)               9828      
                                                                 
 dropout_2 (Dropout)         (None, 108)               0         
                                                                 
 dense_2 (Dense)             (None, 10)                1090      
                                                                 
=================================================================
Total params: 2,961,024
Trainable params: 2,961,024
Non-trainable params: 0
_________________________________________________________________
Taxa de aprendizado:  0.01 Num de épocas:  127 Tamanho do lote:  32 Dropout:  0.38
Epoch 1/127
2024-08-26 23:21:08.202830: I tensorflow/stream_executor/cuda/cuda_dnn.cc:384] Loaded cuDNN version 8100
…
