…
To enable them in other operations, rebuild TensorFlow with the appropriate compiler flags.
2024-08-27 00:00:10.737026: I tensorflow/core/common_runtime/gpu/gpu_device.cc:1616] Created device /job:localhost/replica:0/task:0/device:GPU:0 with 13575 MB memory:  -> device: 0, name: NVIDIA GeForce RTX 4060 Ti, pci bus id: 0000:01:00.0, compute capability: 8.9
1 Physical GPUs, 1 Logical GPUs
Fold:  0
Model: "sequential"
_________________________________________________________________
 Layer (type)                Output Shape              Param #   
=================================================================
 conv2d (Conv2D)             (None, 32, 32, 32)        896       
                                                                 
 conv2d_1 (Conv2D)           (None, 32, 32, 32)        25632     
                                                                 
 conv2d_2 (Conv2D)           (None, 32, 32, 64)        247872    
                                                                 
 max_pooling2d (MaxPooling2D  (None, 16, 16, 64)       0         
 )                                                               
                                                                 
 dropout (Dropout)           (None, 16, 16, 64)        0         
                                                                 
 flatten (Flatten)           (None, 16384)             0         
                                                                 
 dense (Dense)               (None, 102)               1671270   
                                                                 
 dropout_1 (Dropout)         (None, 102)               0         
                                                                 
 dense_1 (Dense)             (None, 10)                1030      
                                                                 
=================================================================
Total params: 1,946,700
Trainable params: 1,946,700
Non-trainable params: 0
_________________________________________________________________
Taxa de aprendizado:  1e-05 Num de épocas:  101 Tamanho do lote:  64 Dropout:  0.34
Epoch 1/101
2024-08-27 00:00:11.874975: I tensorflow/stream_executor/cuda/cuda_dnn.cc:384] Loaded cuDNN version 8100
…
