…
To enable them in other operations, rebuild TensorFlow with the appropriate compiler flags.
2024-08-27 06:03:19.322696: I tensorflow/core/common_runtime/gpu/gpu_device.cc:1616] Created device /job:localhost/replica:0/task:0/device:GPU:0 with 13575 MB memory:  -> device: 0, name: NVIDIA GeForce RTX 4060 Ti, pci bus id: 0000:01:00.0, compute capability: 8.9
1 Physical GPUs, 1 Logical GPUs
Fold:  1
Model: "sequential"
_________________________________________________________________
 Layer (type)                Output Shape              Param #   
=================================================================
 conv2d (Conv2D)             (None, 32, 32, 32)        896       
                                                                 
 conv2d_1 (Conv2D)           (None, 32, 32, 64)        100416    
                                                                 
 conv2d_2 (Conv2D)           (None, 32, 32, 64)        495680    
                                                                 
 max_pooling2d (MaxPooling2D  (None, 16, 16, 64)       0         
 )                                                               
                                                                 
 conv2d_3 (Conv2D)           (None, 16, 16, 64)        102464    
                                                                 
 batch_normalization (BatchN  (None, 16, 16, 64)       256       
 ormalization)                                                   
                                                                 
 conv2d_4 (Conv2D)           (None, 16, 16, 64)        36928     
                                                                 
 max_pooling2d_1 (MaxPooling  (None, 8, 8, 64)         0         
 2D)                                                             
                                                                 
 conv2d_5 (Conv2D)           (None, 8, 8, 64)          495680    
                                                                 
 max_pooling2d_2 (MaxPooling  (None, 4, 4, 64)         0         
 2D)                                                             
                                                                 
 dropout (Dropout)           (None, 4, 4, 64)          0         
                                                                 
 flatten (Flatten)           (None, 1024)              0         
                                                                 
 dense (Dense)               (None, 120)               123000    
                                                                 
 dropout_1 (Dropout)         (None, 120)               0         
                                                                 
 dense_1 (Dense)             (None, 10)                1210      
                                                                 
=================================================================
Total params: 1,356,530
Trainable params: 1,356,402
Non-trainable params: 128
_________________________________________________________________
Taxa de aprendizado:  0.0001 Num de épocas:  161 Tamanho do lote:  64 Dropout:  0.41
Epoch 1/161
2024-08-27 06:03:20.985888: I tensorflow/stream_executor/cuda/cuda_dnn.cc:384] Loaded cuDNN version 8100
…
