…
To enable them in other operations, rebuild TensorFlow with the appropriate compiler flags.
2024-08-27 05:17:26.297766: I tensorflow/core/common_runtime/gpu/gpu_device.cc:1616] Created device /job:localhost/replica:0/task:0/device:GPU:0 with 13575 MB memory:  -> device: 0, name: NVIDIA GeForce RTX 4060 Ti, pci bus id: 0000:01:00.0, compute capability: 8.9
1 Physical GPUs, 1 Logical GPUs
Fold:  0
Model: "sequential"
_________________________________________________________________
 Layer (type)                Output Shape              Param #   
=================================================================
 conv2d (Conv2D)             (None, 32, 32, 32)        896       
                                                                 
 conv2d_1 (Conv2D)           (None, 32, 32, 128)       36992     
                                                                 
 dropout (Dropout)           (None, 32, 32, 128)       0         
                                                                 
 flatten (Flatten)           (None, 131072)            0         
                                                                 
 dense (Dense)               (None, 74)                9699402   
                                                                 
 dropout_1 (Dropout)         (None, 74)                0         
                                                                 
 dense_1 (Dense)             (None, 116)               8700      
                                                                 
 dropout_2 (Dropout)         (None, 116)               0         
                                                                 
 dense_2 (Dense)             (None, 10)                1170      
                                                                 
=================================================================
Total params: 9,747,160
Trainable params: 9,747,160
Non-trainable params: 0
_________________________________________________________________
Taxa de aprendizado:  0.001 Num de épocas:  160 Tamanho do lote:  32 Dropout:  0.38
Epoch 1/160
2024-08-27 05:17:27.715769: I tensorflow/stream_executor/cuda/cuda_dnn.cc:384] Loaded cuDNN version 8100
…
