…
To enable them in other operations, rebuild TensorFlow with the appropriate compiler flags.
2024-08-27 07:40:05.789159: I tensorflow/core/common_runtime/gpu/gpu_device.cc:1616] Created device /job:localhost/replica:0/task:0/device:GPU:0 with 13575 MB memory:  -> device: 0, name: NVIDIA GeForce RTX 4060 Ti, pci bus id: 0000:01:00.0, compute capability: 8.9
1 Physical GPUs, 1 Logical GPUs
Fold:  0
Model: "sequential"
_________________________________________________________________
 Layer (type)                Output Shape              Param #   
=================================================================
 conv2d (Conv2D)             (None, 32, 32, 32)        896       
                                                                 
 conv2d_1 (Conv2D)           (None, 32, 32, 32)        50208     
                                                                 
 conv2d_2 (Conv2D)           (None, 32, 32, 32)        123936    
                                                                 
 max_pooling2d (MaxPooling2D  (None, 16, 16, 32)       0         
 )                                                               
                                                                 
 conv2d_3 (Conv2D)           (None, 16, 16, 256)       663808    
                                                                 
 batch_normalization (BatchN  (None, 16, 16, 256)      1024      
 ormalization)                                                   
                                                                 
 dropout (Dropout)           (None, 16, 16, 256)       0         
                                                                 
 flatten (Flatten)           (None, 65536)             0         
                                                                 
 dense (Dense)               (None, 104)               6815848   
                                                                 
 dropout_1 (Dropout)         (None, 104)               0         
                                                                 
 dense_1 (Dense)             (None, 10)                1050      
                                                                 
=================================================================
Total params: 7,656,770
Trainable params: 7,656,258
Non-trainable params: 512
_________________________________________________________________
Taxa de aprendizado:  0.0001 Num de épocas:  93 Tamanho do lote:  32 Dropout:  0.2
Epoch 1/93
2024-08-27 07:40:07.651371: I tensorflow/stream_executor/cuda/cuda_dnn.cc:384] Loaded cuDNN version 8100
…
