…
To enable them in other operations, rebuild TensorFlow with the appropriate compiler flags.
2024-08-27 15:26:10.786055: I tensorflow/core/common_runtime/gpu/gpu_device.cc:1616] Created device /job:localhost/replica:0/task:0/device:GPU:0 with 13575 MB memory:  -> device: 0, name: NVIDIA GeForce RTX 4060 Ti, pci bus id: 0000:01:00.0, compute capability: 8.9
1 Physical GPUs, 1 Logical GPUs
Fold:  1
Model: "sequential"
_________________________________________________________________
 Layer (type)                Output Shape              Param #   
=================================================================
 conv2d (Conv2D)             (None, 32, 32, 32)        896       
                                                                 
 conv2d_1 (Conv2D)           (None, 32, 32, 128)       36992     
                                                                 
 dropout (Dropout)           (None, 32, 32, 128)       0         
                                                                 
 flatten (Flatten)           (None, 131072)            0         
                                                                 
 dense (Dense)               (None, 102)               13369446  
                                                                 
 dropout_1 (Dropout)         (None, 102)               0         
                                                                 
 dense_1 (Dense)             (None, 10)                1030      
                                                                 
=================================================================
Total params: 13,408,364
Trainable params: 13,408,364
Non-trainable params: 0
_________________________________________________________________
Taxa de aprendizado:  0.0001 Num de épocas:  166 Tamanho do lote:  32 Dropout:  0.41
Epoch 1/166
2024-08-27 15:26:11.914055: I tensorflow/stream_executor/cuda/cuda_dnn.cc:384] Loaded cuDNN version 8100
…
