…
To enable them in other operations, rebuild TensorFlow with the appropriate compiler flags.
2024-08-27 18:20:10.898508: I tensorflow/core/common_runtime/gpu/gpu_device.cc:1616] Created device /job:localhost/replica:0/task:0/device:GPU:0 with 13575 MB memory:  -> device: 0, name: NVIDIA GeForce RTX 4060 Ti, pci bus id: 0000:01:00.0, compute capability: 8.9
1 Physical GPUs, 1 Logical GPUs
Fold:  1
Model: "sequential"
_________________________________________________________________
 Layer (type)                Output Shape              Param #   
=================================================================
 conv2d (Conv2D)             (None, 32, 32, 32)        896       
                                                                 
 conv2d_1 (Conv2D)           (None, 32, 32, 128)       36992     
                                                                 
 dropout (Dropout)           (None, 32, 32, 128)       0         
                                                                 
 flatten (Flatten)           (None, 131072)            0         
                                                                 
 dense (Dense)               (None, 124)               16253052  
                                                                 
 dropout_1 (Dropout)         (None, 124)               0         
                                                                 
 dense_1 (Dense)             (None, 120)               15000     
                                                                 
 dropout_2 (Dropout)         (None, 120)               0         
                                                                 
 dense_2 (Dense)             (None, 10)                1210      
                                                                 
=================================================================
Total params: 16,307,150
Trainable params: 16,307,150
Non-trainable params: 0
_________________________________________________________________
Taxa de aprendizado:  0.0001 Num de épocas:  167 Tamanho do lote:  32 Dropout:  0.34
Epoch 1/167
2024-08-27 18:20:12.186875: I tensorflow/stream_executor/cuda/cuda_dnn.cc:384] Loaded cuDNN version 8100
…
