…
To enable them in other operations, rebuild TensorFlow with the appropriate compiler flags.
2024-08-23 23:27:41.701320: I tensorflow/core/common_runtime/gpu/gpu_device.cc:1616] Created device /job:localhost/replica:0/task:0/device:GPU:0 with 13575 MB memory:  -> device: 0, name: NVIDIA GeForce RTX 4060 Ti, pci bus id: 0000:01:00.0, compute capability: 8.9
1 Physical GPUs, 1 Logical GPUs
Fold:  2
Model: "sequential"
_________________________________________________________________
 Layer (type)                Output Shape              Param #   
=================================================================
 conv2d (Conv2D)             (None, 32, 32, 32)        896       
                                                                 
 batch_normalization (BatchN  (None, 32, 32, 32)       128       
 ormalization)                                                   
                                                                 
 dropout (Dropout)           (None, 32, 32, 32)        0         
                                                                 
 flatten (Flatten)           (None, 32768)             0         
                                                                 
 dense (Dense)               (None, 82)                2687058   
                                                                 
 dropout_1 (Dropout)         (None, 82)                0         
                                                                 
 dense_1 (Dense)             (None, 62)                5146      
                                                                 
 dropout_2 (Dropout)         (None, 62)                0         
                                                                 
 dense_2 (Dense)             (None, 10)                630       
                                                                 
=================================================================
Total params: 2,693,858
Trainable params: 2,693,794
Non-trainable params: 64
_________________________________________________________________
Taxa de aprendizado:  0.0001 Num de épocas:  61 Tamanho do lote:  512 Dropout:  0.41
Epoch 1/61
2024-08-23 23:27:42.818687: I tensorflow/stream_executor/cuda/cuda_dnn.cc:384] Loaded cuDNN version 8100
…
