…
To enable them in other operations, rebuild TensorFlow with the appropriate compiler flags.
2024-08-27 20:34:54.021890: I tensorflow/core/common_runtime/gpu/gpu_device.cc:1616] Created device /job:localhost/replica:0/task:0/device:GPU:0 with 13575 MB memory:  -> device: 0, name: NVIDIA GeForce RTX 4060 Ti, pci bus id: 0000:01:00.0, compute capability: 8.9
1 Physical GPUs, 1 Logical GPUs
Fold:  1
Model: "sequential"
_________________________________________________________________
 Layer (type)                Output Shape              Param #   
=================================================================
 conv2d (Conv2D)             (None, 32, 32, 32)        896       
                                                                 
 conv2d_1 (Conv2D)           (None, 32, 32, 64)        51264     
                                                                 
 conv2d_2 (Conv2D)           (None, 32, 32, 32)        165920    
                                                                 
 max_pooling2d (MaxPooling2D  (None, 16, 16, 32)       0         
 )                                                               
                                                                 
 dropout (Dropout)           (None, 16, 16, 32)        0         
                                                                 
 flatten (Flatten)           (None, 8192)              0         
                                                                 
 dense (Dense)               (None, 94)                770142    
                                                                 
 dropout_1 (Dropout)         (None, 94)                0         
                                                                 
 dense_1 (Dense)             (None, 10)                950       
                                                                 
=================================================================
Total params: 989,172
Trainable params: 989,172
Non-trainable params: 0
_________________________________________________________________
Taxa de aprendizado:  1e-05 Num de épocas:  55 Tamanho do lote:  32 Dropout:  0.31
Epoch 1/55
2024-08-27 20:34:55.875678: I tensorflow/stream_executor/cuda/cuda_dnn.cc:384] Loaded cuDNN version 8100
…
