…
To enable them in other operations, rebuild TensorFlow with the appropriate compiler flags.
2024-08-24 03:10:20.396670: I tensorflow/core/common_runtime/gpu/gpu_device.cc:1616] Created device /job:localhost/replica:0/task:0/device:GPU:0 with 13575 MB memory:  -> device: 0, name: NVIDIA GeForce RTX 4060 Ti, pci bus id: 0000:01:00.0, compute capability: 8.9
1 Physical GPUs, 1 Logical GPUs
Fold:  0
Model: "sequential"
_________________________________________________________________
 Layer (type)                Output Shape              Param #   
=================================================================
 conv2d (Conv2D)             (None, 32, 32, 32)        896       
                                                                 
 max_pooling2d (MaxPooling2D  (None, 16, 16, 32)       0         
 )                                                               
                                                                 
 conv2d_1 (Conv2D)           (None, 16, 16, 128)       36992     
                                                                 
 conv2d_2 (Conv2D)           (None, 16, 16, 64)        663616    
                                                                 
 max_pooling2d_1 (MaxPooling  (None, 8, 8, 64)         0         
 2D)                                                             
                                                                 
 conv2d_3 (Conv2D)           (None, 8, 8, 64)          495680    
                                                                 
 max_pooling2d_2 (MaxPooling  (None, 4, 4, 64)         0         
 2D)                                                             
                                                                 
 batch_normalization (BatchN  (None, 4, 4, 64)         256       
 ormalization)                                                   
                                                                 
 conv2d_4 (Conv2D)           (None, 4, 4, 256)         803072    
                                                                 
 max_pooling2d_3 (MaxPooling  (None, 2, 2, 256)        0         
 2D)                                                             
                                                                 
 conv2d_5 (Conv2D)           (None, 2, 2, 128)         2654336   
                                                                 
 max_pooling2d_4 (MaxPooling  (None, 1, 1, 128)        0         
 2D)                                                             
                                                                 
 dropout (Dropout)           (None, 1, 1, 128)         0         
                                                                 
 flatten (Flatten)           (None, 128)               0         
                                                                 
 dense (Dense)               (None, 72)                9288      
                                                                 
 dropout_1 (Dropout)         (None, 72)                0         
                                                                 
 dense_1 (Dense)             (None, 118)               8614      
                                                                 
 dropout_2 (Dropout)         (None, 118)               0         
                                                                 
 dense_2 (Dense)             (None, 10)                1190      
                                                                 
=================================================================
Total params: 4,673,940
Trainable params: 4,673,812
Non-trainable params: 128
_________________________________________________________________
Taxa de aprendizado:  0.0001 Num de épocas:  269 Tamanho do lote:  32 Dropout:  0.5
Epoch 1/269
2024-08-24 03:10:22.657728: I tensorflow/stream_executor/cuda/cuda_dnn.cc:384] Loaded cuDNN version 8100
…
