…
To enable them in other operations, rebuild TensorFlow with the appropriate compiler flags.
2024-08-23 20:33:11.185290: I tensorflow/core/common_runtime/gpu/gpu_device.cc:1616] Created device /job:localhost/replica:0/task:0/device:GPU:0 with 13575 MB memory:  -> device: 0, name: NVIDIA GeForce RTX 4060 Ti, pci bus id: 0000:01:00.0, compute capability: 8.9
1 Physical GPUs, 1 Logical GPUs
Fold:  1
Model: "sequential"
_________________________________________________________________
 Layer (type)                Output Shape              Param #   
=================================================================
 conv2d (Conv2D)             (None, 32, 32, 32)        896       
                                                                 
 conv2d_1 (Conv2D)           (None, 32, 32, 256)       991488    
                                                                 
 batch_normalization (BatchN  (None, 32, 32, 256)      1024      
 ormalization)                                                   
                                                                 
 dropout (Dropout)           (None, 32, 32, 256)       0         
                                                                 
 flatten (Flatten)           (None, 262144)            0         
                                                                 
 dense (Dense)               (None, 38)                9961510   
                                                                 
 dropout_1 (Dropout)         (None, 38)                0         
                                                                 
 dense_1 (Dense)             (None, 10)                390       
                                                                 
=================================================================
Total params: 10,955,308
Trainable params: 10,954,796
Non-trainable params: 512
_________________________________________________________________
Taxa de aprendizado:  1e-05 Num de épocas:  85 Tamanho do lote:  1024 Dropout:  0.43
Epoch 1/85
2024-08-23 20:33:12.731288: I tensorflow/stream_executor/cuda/cuda_dnn.cc:384] Loaded cuDNN version 8100
…
