…
To enable them in other operations, rebuild TensorFlow with the appropriate compiler flags.
2024-08-24 02:57:53.234778: I tensorflow/core/common_runtime/gpu/gpu_device.cc:1616] Created device /job:localhost/replica:0/task:0/device:GPU:0 with 13575 MB memory:  -> device: 0, name: NVIDIA GeForce RTX 4060 Ti, pci bus id: 0000:01:00.0, compute capability: 8.9
1 Physical GPUs, 1 Logical GPUs
Fold:  0
Model: "sequential"
_________________________________________________________________
 Layer (type)                Output Shape              Param #   
=================================================================
 conv2d (Conv2D)             (None, 32, 32, 32)        896       
                                                                 
 conv2d_1 (Conv2D)           (None, 32, 32, 128)       331904    
                                                                 
 dropout (Dropout)           (None, 32, 32, 128)       0         
                                                                 
 flatten (Flatten)           (None, 131072)            0         
                                                                 
 dense (Dense)               (None, 108)               14155884  
                                                                 
 dropout_1 (Dropout)         (None, 108)               0         
                                                                 
 dense_1 (Dense)             (None, 10)                1090      
                                                                 
=================================================================
Total params: 14,489,774
Trainable params: 14,489,774
Non-trainable params: 0
_________________________________________________________________
Taxa de aprendizado:  0.0001 Num de épocas:  133 Tamanho do lote:  64 Dropout:  0.35
Epoch 1/133
2024-08-24 02:57:55.052900: I tensorflow/stream_executor/cuda/cuda_dnn.cc:384] Loaded cuDNN version 8100
…
