…
To enable them in other operations, rebuild TensorFlow with the appropriate compiler flags.
2024-08-24 03:06:08.616727: I tensorflow/core/common_runtime/gpu/gpu_device.cc:1616] Created device /job:localhost/replica:0/task:0/device:GPU:0 with 13575 MB memory:  -> device: 0, name: NVIDIA GeForce RTX 4060 Ti, pci bus id: 0000:01:00.0, compute capability: 8.9
1 Physical GPUs, 1 Logical GPUs
Fold:  0
Model: "sequential"
_________________________________________________________________
 Layer (type)                Output Shape              Param #   
=================================================================
 conv2d (Conv2D)             (None, 32, 32, 32)        896       
                                                                 
 max_pooling2d (MaxPooling2D  (None, 16, 16, 32)       0         
 )                                                               
                                                                 
 conv2d_1 (Conv2D)           (None, 16, 16, 128)       200832    
                                                                 
 batch_normalization (BatchN  (None, 16, 16, 128)      512       
 ormalization)                                                   
                                                                 
 conv2d_2 (Conv2D)           (None, 16, 16, 64)        663616    
                                                                 
 batch_normalization_1 (Batc  (None, 16, 16, 64)       256       
 hNormalization)                                                 
                                                                 
 conv2d_3 (Conv2D)           (None, 16, 16, 256)       803072    
                                                                 
 batch_normalization_2 (Batc  (None, 16, 16, 256)      1024      
 hNormalization)                                                 
                                                                 
 dropout (Dropout)           (None, 16, 16, 256)       0         
                                                                 
 flatten (Flatten)           (None, 65536)             0         
                                                                 
 dense (Dense)               (None, 12)                786444    
                                                                 
 dropout_1 (Dropout)         (None, 12)                0         
                                                                 
 dense_1 (Dense)             (None, 10)                130       
                                                                 
=================================================================
Total params: 2,456,782
Trainable params: 2,455,886
Non-trainable params: 896
_________________________________________________________________
Taxa de aprendizado:  0.001 Num de épocas:  207 Tamanho do lote:  128 Dropout:  0.29
Epoch 1/207
2024-08-24 03:06:10.280691: I tensorflow/stream_executor/cuda/cuda_dnn.cc:384] Loaded cuDNN version 8100
…
