…
To enable them in other operations, rebuild TensorFlow with the appropriate compiler flags.
2024-08-24 05:09:26.987513: I tensorflow/core/common_runtime/gpu/gpu_device.cc:1616] Created device /job:localhost/replica:0/task:0/device:GPU:0 with 13575 MB memory:  -> device: 0, name: NVIDIA GeForce RTX 4060 Ti, pci bus id: 0000:01:00.0, compute capability: 8.9
1 Physical GPUs, 1 Logical GPUs
Fold:  0
Model: "sequential"
_________________________________________________________________
 Layer (type)                Output Shape              Param #   
=================================================================
 conv2d (Conv2D)             (None, 32, 32, 32)        896       
                                                                 
 batch_normalization (BatchN  (None, 32, 32, 32)       128       
 ormalization)                                                   
                                                                 
 conv2d_1 (Conv2D)           (None, 32, 32, 128)       102528    
                                                                 
 max_pooling2d (MaxPooling2D  (None, 16, 16, 128)      0         
 )                                                               
                                                                 
 conv2d_2 (Conv2D)           (None, 16, 16, 64)        991296    
                                                                 
 max_pooling2d_1 (MaxPooling  (None, 8, 8, 64)         0         
 2D)                                                             
                                                                 
 conv2d_3 (Conv2D)           (None, 8, 8, 256)         1327360   
                                                                 
 batch_normalization_1 (Batc  (None, 8, 8, 256)        1024      
 hNormalization)                                                 
                                                                 
 conv2d_4 (Conv2D)           (None, 8, 8, 128)         819328    
                                                                 
 conv2d_5 (Conv2D)           (None, 8, 8, 256)         2654464   
                                                                 
 conv2d_6 (Conv2D)           (None, 8, 8, 64)          802880    
                                                                 
 max_pooling2d_2 (MaxPooling  (None, 4, 4, 64)         0         
 2D)                                                             
                                                                 
 dropout (Dropout)           (None, 4, 4, 64)          0         
                                                                 
 flatten (Flatten)           (None, 1024)              0         
                                                                 
 dense (Dense)               (None, 82)                84050     
                                                                 
 dropout_1 (Dropout)         (None, 82)                0         
                                                                 
 dense_1 (Dense)             (None, 10)                830       
                                                                 
=================================================================
Total params: 6,784,784
Trainable params: 6,784,208
Non-trainable params: 576
_________________________________________________________________
Taxa de aprendizado:  1e-05 Num de épocas:  197 Tamanho do lote:  256 Dropout:  0.01
Epoch 1/197
2024-08-24 05:09:28.654166: I tensorflow/stream_executor/cuda/cuda_dnn.cc:384] Loaded cuDNN version 8100
…
