…
To enable them in other operations, rebuild TensorFlow with the appropriate compiler flags.
2024-08-24 05:24:13.155153: I tensorflow/core/common_runtime/gpu/gpu_device.cc:1616] Created device /job:localhost/replica:0/task:0/device:GPU:0 with 13575 MB memory:  -> device: 0, name: NVIDIA GeForce RTX 4060 Ti, pci bus id: 0000:01:00.0, compute capability: 8.9
1 Physical GPUs, 1 Logical GPUs
Fold:  0
Model: "sequential"
_________________________________________________________________
 Layer (type)                Output Shape              Param #   
=================================================================
 conv2d (Conv2D)             (None, 32, 32, 32)        896       
                                                                 
 conv2d_1 (Conv2D)           (None, 32, 32, 64)        247872    
                                                                 
 batch_normalization (BatchN  (None, 32, 32, 64)       256       
 ormalization)                                                   
                                                                 
 conv2d_2 (Conv2D)           (None, 32, 32, 32)        165920    
                                                                 
 max_pooling2d (MaxPooling2D  (None, 16, 16, 32)       0         
 )                                                               
                                                                 
 batch_normalization_1 (Batc  (None, 16, 16, 32)       128       
 hNormalization)                                                 
                                                                 
 conv2d_3 (Conv2D)           (None, 16, 16, 256)       73984     
                                                                 
 conv2d_4 (Conv2D)           (None, 16, 16, 64)        147520    
                                                                 
 max_pooling2d_1 (MaxPooling  (None, 8, 8, 64)         0         
 2D)                                                             
                                                                 
 conv2d_5 (Conv2D)           (None, 8, 8, 128)         73856     
                                                                 
 max_pooling2d_2 (MaxPooling  (None, 4, 4, 128)        0         
 2D)                                                             
                                                                 
 dropout (Dropout)           (None, 4, 4, 128)         0         
                                                                 
 flatten (Flatten)           (None, 2048)              0         
                                                                 
 dense (Dense)               (None, 68)                139332    
                                                                 
 dropout_1 (Dropout)         (None, 68)                0         
                                                                 
 dense_1 (Dense)             (None, 10)                690       
                                                                 
=================================================================
Total params: 850,454
Trainable params: 850,262
Non-trainable params: 192
_________________________________________________________________
Taxa de aprendizado:  0.001 Num de épocas:  212 Tamanho do lote:  256 Dropout:  0.31
Epoch 1/212
2024-08-24 05:24:14.682719: I tensorflow/stream_executor/cuda/cuda_dnn.cc:384] Loaded cuDNN version 8100
…
