…
To enable them in other operations, rebuild TensorFlow with the appropriate compiler flags.
2024-08-24 04:27:05.246601: I tensorflow/core/common_runtime/gpu/gpu_device.cc:1616] Created device /job:localhost/replica:0/task:0/device:GPU:0 with 13575 MB memory:  -> device: 0, name: NVIDIA GeForce RTX 4060 Ti, pci bus id: 0000:01:00.0, compute capability: 8.9
1 Physical GPUs, 1 Logical GPUs
Fold:  4
Model: "sequential"
_________________________________________________________________
 Layer (type)                Output Shape              Param #   
=================================================================
 conv2d (Conv2D)             (None, 32, 32, 32)        896       
                                                                 
 batch_normalization (BatchN  (None, 32, 32, 32)       128       
 ormalization)                                                   
                                                                 
 conv2d_1 (Conv2D)           (None, 32, 32, 32)        123936    
                                                                 
 dropout (Dropout)           (None, 32, 32, 32)        0         
                                                                 
 flatten (Flatten)           (None, 32768)             0         
                                                                 
 dense (Dense)               (None, 106)               3473514   
                                                                 
 dropout_1 (Dropout)         (None, 106)               0         
                                                                 
 dense_1 (Dense)             (None, 10)                1070      
                                                                 
=================================================================
Total params: 3,599,544
Trainable params: 3,599,480
Non-trainable params: 64
_________________________________________________________________
Taxa de aprendizado:  0.1 Num de épocas:  81 Tamanho do lote:  32 Dropout:  0.33
Epoch 1/81
2024-08-24 04:27:06.636265: I tensorflow/stream_executor/cuda/cuda_dnn.cc:384] Loaded cuDNN version 8100
…
