…
To enable them in other operations, rebuild TensorFlow with the appropriate compiler flags.
2024-08-24 05:47:20.852766: I tensorflow/core/common_runtime/gpu/gpu_device.cc:1616] Created device /job:localhost/replica:0/task:0/device:GPU:0 with 13575 MB memory:  -> device: 0, name: NVIDIA GeForce RTX 4060 Ti, pci bus id: 0000:01:00.0, compute capability: 8.9
1 Physical GPUs, 1 Logical GPUs
Fold:  0
Model: "sequential"
_________________________________________________________________
 Layer (type)                Output Shape              Param #   
=================================================================
 conv2d (Conv2D)             (None, 32, 32, 32)        896       
                                                                 
 conv2d_1 (Conv2D)           (None, 32, 32, 128)       102528    
                                                                 
 dropout (Dropout)           (None, 32, 32, 128)       0         
                                                                 
 flatten (Flatten)           (None, 131072)            0         
                                                                 
 dense (Dense)               (None, 96)                12583008  
                                                                 
 dropout_1 (Dropout)         (None, 96)                0         
                                                                 
 dense_1 (Dense)             (None, 122)               11834     
                                                                 
 dropout_2 (Dropout)         (None, 122)               0         
                                                                 
 dense_2 (Dense)             (None, 10)                1230      
                                                                 
=================================================================
Total params: 12,699,496
Trainable params: 12,699,496
Non-trainable params: 0
_________________________________________________________________
Taxa de aprendizado:  1e-05 Num de épocas:  198 Tamanho do lote:  16 Dropout:  0.32
Epoch 1/198
2024-08-24 05:47:22.264081: I tensorflow/stream_executor/cuda/cuda_dnn.cc:384] Loaded cuDNN version 8100
…
