…
To enable them in other operations, rebuild TensorFlow with the appropriate compiler flags.
2024-08-24 06:04:07.236277: I tensorflow/core/common_runtime/gpu/gpu_device.cc:1616] Created device /job:localhost/replica:0/task:0/device:GPU:0 with 13575 MB memory:  -> device: 0, name: NVIDIA GeForce RTX 4060 Ti, pci bus id: 0000:01:00.0, compute capability: 8.9
1 Physical GPUs, 1 Logical GPUs
Fold:  0
Model: "sequential"
_________________________________________________________________
 Layer (type)                Output Shape              Param #   
=================================================================
 conv2d (Conv2D)             (None, 32, 32, 32)        896       
                                                                 
 max_pooling2d (MaxPooling2D  (None, 16, 16, 32)       0         
 )                                                               
                                                                 
 conv2d_1 (Conv2D)           (None, 16, 16, 128)       36992     
                                                                 
 batch_normalization (BatchN  (None, 16, 16, 128)      512       
 ormalization)                                                   
                                                                 
 conv2d_2 (Conv2D)           (None, 16, 16, 64)        663616    
                                                                 
 max_pooling2d_1 (MaxPooling  (None, 8, 8, 64)         0         
 2D)                                                             
                                                                 
 dropout (Dropout)           (None, 8, 8, 64)          0         
                                                                 
 flatten (Flatten)           (None, 4096)              0         
                                                                 
 dense (Dense)               (None, 106)               434282    
                                                                 
 dropout_1 (Dropout)         (None, 106)               0         
                                                                 
 dense_1 (Dense)             (None, 10)                1070      
                                                                 
=================================================================
Total params: 1,137,368
Trainable params: 1,137,112
Non-trainable params: 256
_________________________________________________________________
Taxa de aprendizado:  0.01 Num de épocas:  164 Tamanho do lote:  64 Dropout:  0.39
Epoch 1/164
2024-08-24 06:04:08.741928: I tensorflow/stream_executor/cuda/cuda_dnn.cc:384] Loaded cuDNN version 8100
…
