…
To enable them in other operations, rebuild TensorFlow with the appropriate compiler flags.
2024-08-23 20:22:51.055228: I tensorflow/core/common_runtime/gpu/gpu_device.cc:1616] Created device /job:localhost/replica:0/task:0/device:GPU:0 with 13575 MB memory:  -> device: 0, name: NVIDIA GeForce RTX 4060 Ti, pci bus id: 0000:01:00.0, compute capability: 8.9
1 Physical GPUs, 1 Logical GPUs
Fold:  1
Model: "sequential"
_________________________________________________________________
 Layer (type)                Output Shape              Param #   
=================================================================
 conv2d (Conv2D)             (None, 32, 32, 32)        896       
                                                                 
 max_pooling2d (MaxPooling2D  (None, 16, 16, 32)       0         
 )                                                               
                                                                 
 dropout (Dropout)           (None, 16, 16, 32)        0         
                                                                 
 flatten (Flatten)           (None, 8192)              0         
                                                                 
 dense (Dense)               (None, 100)               819300    
                                                                 
 dropout_1 (Dropout)         (None, 100)               0         
                                                                 
 dense_1 (Dense)             (None, 44)                4444      
                                                                 
 dropout_2 (Dropout)         (None, 44)                0         
                                                                 
 dense_2 (Dense)             (None, 10)                450       
                                                                 
=================================================================
Total params: 825,090
Trainable params: 825,090
Non-trainable params: 0
_________________________________________________________________
Taxa de aprendizado:  0.1 Num de épocas:  93 Tamanho do lote:  512 Dropout:  0.23
Epoch 1/93
2024-08-23 20:22:53.453402: I tensorflow/stream_executor/cuda/cuda_dnn.cc:384] Loaded cuDNN version 8100
…
