…
To enable them in other operations, rebuild TensorFlow with the appropriate compiler flags.
2024-08-24 06:25:37.363727: I tensorflow/core/common_runtime/gpu/gpu_device.cc:1616] Created device /job:localhost/replica:0/task:0/device:GPU:0 with 13575 MB memory:  -> device: 0, name: NVIDIA GeForce RTX 4060 Ti, pci bus id: 0000:01:00.0, compute capability: 8.9
1 Physical GPUs, 1 Logical GPUs
Fold:  5
Model: "sequential"
_________________________________________________________________
 Layer (type)                Output Shape              Param #   
=================================================================
 conv2d (Conv2D)             (None, 32, 32, 32)        896       
                                                                 
 conv2d_1 (Conv2D)           (None, 32, 32, 128)       200832    
                                                                 
 dropout (Dropout)           (None, 32, 32, 128)       0         
                                                                 
 flatten (Flatten)           (None, 131072)            0         
                                                                 
 dense (Dense)               (None, 76)                9961548   
                                                                 
 dropout_1 (Dropout)         (None, 76)                0         
                                                                 
 dense_1 (Dense)             (None, 10)                770       
                                                                 
=================================================================
Total params: 10,164,046
Trainable params: 10,164,046
Non-trainable params: 0
_________________________________________________________________
Taxa de aprendizado:  0.01 Num de épocas:  68 Tamanho do lote:  64 Dropout:  0.33
Epoch 1/68
2024-08-24 06:25:38.613781: I tensorflow/stream_executor/cuda/cuda_dnn.cc:384] Loaded cuDNN version 8100
…
