…
To enable them in other operations, rebuild TensorFlow with the appropriate compiler flags.
2024-08-24 06:42:00.488650: I tensorflow/core/common_runtime/gpu/gpu_device.cc:1616] Created device /job:localhost/replica:0/task:0/device:GPU:0 with 13575 MB memory:  -> device: 0, name: NVIDIA GeForce RTX 4060 Ti, pci bus id: 0000:01:00.0, compute capability: 8.9
1 Physical GPUs, 1 Logical GPUs
Fold:  5
Model: "sequential"
_________________________________________________________________
 Layer (type)                Output Shape              Param #   
=================================================================
 conv2d (Conv2D)             (None, 32, 32, 32)        896       
                                                                 
 conv2d_1 (Conv2D)           (None, 32, 32, 64)        51264     
                                                                 
 dropout (Dropout)           (None, 32, 32, 64)        0         
                                                                 
 flatten (Flatten)           (None, 65536)             0         
                                                                 
 dense (Dense)               (None, 34)                2228258   
                                                                 
 dropout_1 (Dropout)         (None, 34)                0         
                                                                 
 dense_1 (Dense)             (None, 10)                350       
                                                                 
=================================================================
Total params: 2,280,768
Trainable params: 2,280,768
Non-trainable params: 0
_________________________________________________________________
Taxa de aprendizado:  0.01 Num de épocas:  71 Tamanho do lote:  128 Dropout:  0.06
Epoch 1/71
2024-08-24 06:42:02.124234: I tensorflow/stream_executor/cuda/cuda_dnn.cc:384] Loaded cuDNN version 8100
…
