…
To enable them in other operations, rebuild TensorFlow with the appropriate compiler flags.
2024-06-21 15:41:59.334649: I tensorflow/core/common_runtime/gpu/gpu_device.cc:1616] Created device /job:localhost/replica:0/task:0/device:GPU:0 with 6144 MB memory:  -> device: 0, name: NVIDIA GeForce RTX 4060 Ti, pci bus id: 0000:01:00.0, compute capability: 8.9
1 Physical GPUs, 1 Logical GPUs
Model: "sequential"
_________________________________________________________________
 Layer (type)                Output Shape              Param #   
=================================================================
 conv2d (Conv2D)             (None, 32, 32, 32)        896       
                                                                 
 max_pooling2d (MaxPooling2D  (None, 16, 16, 32)       0         
 )                                                               
                                                                 
 batch_normalization (BatchN  (None, 16, 16, 32)       128       
 ormalization)                                                   
                                                                 
 conv2d_1 (Conv2D)           (None, 16, 16, 64)        165952    
                                                                 
 max_pooling2d_1 (MaxPooling  (None, 8, 8, 64)         0         
 2D)                                                             
                                                                 
 conv2d_2 (Conv2D)           (None, 8, 8, 32)          165920    
                                                                 
 max_pooling2d_2 (MaxPooling  (None, 4, 4, 32)         0         
 2D)                                                             
                                                                 
 conv2d_3 (Conv2D)           (None, 4, 4, 256)         991488    
                                                                 
 max_pooling2d_3 (MaxPooling  (None, 2, 2, 256)        0         
 2D)                                                             
                                                                 
 batch_normalization_1 (Batc  (None, 2, 2, 256)        1024      
 hNormalization)                                                 
                                                                 
 conv2d_4 (Conv2D)           (None, 2, 2, 256)         5308672   
                                                                 
 dropout (Dropout)           (None, 2, 2, 256)         0         
                                                                 
 flatten (Flatten)           (None, 1024)              0         
                                                                 
 dense (Dense)               (None, 10)                10250     
                                                                 
=================================================================
Total params: 6,644,330
Trainable params: 6,643,754
Non-trainable params: 576
_________________________________________________________________
Taxa de aprendizado:  0.001 Num de épocas:  230 Tamanho do lote:  128 Dropout:  0.15
Epoch 1/230
2024-06-21 15:42:00.776281: I tensorflow/stream_executor/cuda/cuda_dnn.cc:384] Loaded cuDNN version 8100
…
