…
To enable them in other operations, rebuild TensorFlow with the appropriate compiler flags.
2024-06-21 14:28:15.268769: I tensorflow/core/common_runtime/gpu/gpu_device.cc:1616] Created device /job:localhost/replica:0/task:0/device:GPU:0 with 6144 MB memory:  -> device: 0, name: NVIDIA GeForce RTX 4060 Ti, pci bus id: 0000:01:00.0, compute capability: 8.9
1 Physical GPUs, 1 Logical GPUs
Model: "sequential"
_________________________________________________________________
 Layer (type)                Output Shape              Param #   
=================================================================
 conv2d (Conv2D)             (None, 32, 32, 32)        896       
                                                                 
 max_pooling2d (MaxPooling2D  (None, 16, 16, 32)       0         
 )                                                               
                                                                 
 batch_normalization (BatchN  (None, 16, 16, 32)       128       
 ormalization)                                                   
                                                                 
 dropout (Dropout)           (None, 16, 16, 32)        0         
                                                                 
 flatten (Flatten)           (None, 8192)              0         
                                                                 
 dense (Dense)               (None, 48)                393264    
                                                                 
 dropout_1 (Dropout)         (None, 48)                0         
                                                                 
 dense_1 (Dense)             (None, 72)                3528      
                                                                 
 dropout_2 (Dropout)         (None, 72)                0         
                                                                 
 dense_2 (Dense)             (None, 10)                730       
                                                                 
=================================================================
Total params: 398,546
Trainable params: 398,482
Non-trainable params: 64
_________________________________________________________________
Taxa de aprendizado:  0.0001 Num de épocas:  58 Tamanho do lote:  64 Dropout:  0.04
Epoch 1/58
2024-06-21 14:28:16.660536: I tensorflow/stream_executor/cuda/cuda_dnn.cc:384] Loaded cuDNN version 8100
…
