…
To enable them in other operations, rebuild TensorFlow with the appropriate compiler flags.
2024-06-21 15:15:41.728896: I tensorflow/core/common_runtime/gpu/gpu_device.cc:1616] Created device /job:localhost/replica:0/task:0/device:GPU:0 with 6144 MB memory:  -> device: 0, name: NVIDIA GeForce RTX 4060 Ti, pci bus id: 0000:01:00.0, compute capability: 8.9
1 Physical GPUs, 1 Logical GPUs
Model: "sequential"
_________________________________________________________________
 Layer (type)                Output Shape              Param #   
=================================================================
 conv2d (Conv2D)             (None, 32, 32, 32)        896       
                                                                 
 max_pooling2d (MaxPooling2D  (None, 16, 16, 32)       0         
 )                                                               
                                                                 
 batch_normalization (BatchN  (None, 16, 16, 32)       128       
 ormalization)                                                   
                                                                 
 conv2d_1 (Conv2D)           (None, 16, 16, 64)        100416    
                                                                 
 max_pooling2d_1 (MaxPooling  (None, 8, 8, 64)         0         
 2D)                                                             
                                                                 
 conv2d_2 (Conv2D)           (None, 8, 8, 64)          495680    
                                                                 
 conv2d_3 (Conv2D)           (None, 8, 8, 64)          200768    
                                                                 
 max_pooling2d_2 (MaxPooling  (None, 4, 4, 64)         0         
 2D)                                                             
                                                                 
 batch_normalization_1 (Batc  (None, 4, 4, 64)         256       
 hNormalization)                                                 
                                                                 
 conv2d_4 (Conv2D)           (None, 4, 4, 128)         204928    
                                                                 
 max_pooling2d_3 (MaxPooling  (None, 2, 2, 128)        0         
 2D)                                                             
                                                                 
 dropout (Dropout)           (None, 2, 2, 128)         0         
                                                                 
 flatten (Flatten)           (None, 512)               0         
                                                                 
 dense (Dense)               (None, 94)                48222     
                                                                 
 dropout_1 (Dropout)         (None, 94)                0         
                                                                 
 dense_1 (Dense)             (None, 10)                950       
                                                                 
=================================================================
Total params: 1,052,244
Trainable params: 1,052,052
Non-trainable params: 192
_________________________________________________________________
Taxa de aprendizado:  0.0001 Num de épocas:  69 Tamanho do lote:  256 Dropout:  0.11
Epoch 1/69
2024-06-21 15:15:43.253628: I tensorflow/stream_executor/cuda/cuda_dnn.cc:384] Loaded cuDNN version 8100
…
