…
To enable them in other operations, rebuild TensorFlow with the appropriate compiler flags.
2024-06-21 18:18:11.604092: I tensorflow/core/common_runtime/gpu/gpu_device.cc:1616] Created device /job:localhost/replica:0/task:0/device:GPU:0 with 6144 MB memory:  -> device: 0, name: NVIDIA GeForce RTX 4060 Ti, pci bus id: 0000:01:00.0, compute capability: 8.9
1 Physical GPUs, 1 Logical GPUs
Model: "sequential"
_________________________________________________________________
 Layer (type)                Output Shape              Param #   
=================================================================
 conv2d (Conv2D)             (None, 32, 32, 32)        896       
                                                                 
 max_pooling2d (MaxPooling2D  (None, 16, 16, 32)       0         
 )                                                               
                                                                 
 batch_normalization (BatchN  (None, 16, 16, 32)       128       
 ormalization)                                                   
                                                                 
 conv2d_1 (Conv2D)           (None, 16, 16, 64)        165952    
                                                                 
 max_pooling2d_1 (MaxPooling  (None, 8, 8, 64)         0         
 2D)                                                             
                                                                 
 batch_normalization_1 (Batc  (None, 8, 8, 64)         256       
 hNormalization)                                                 
                                                                 
 conv2d_2 (Conv2D)           (None, 8, 8, 32)          51232     
                                                                 
 max_pooling2d_2 (MaxPooling  (None, 4, 4, 32)         0         
 2D)                                                             
                                                                 
 batch_normalization_2 (Batc  (None, 4, 4, 32)         128       
 hNormalization)                                                 
                                                                 
 dropout (Dropout)           (None, 4, 4, 32)          0         
                                                                 
 flatten (Flatten)           (None, 512)               0         
                                                                 
 dense (Dense)               (None, 72)                36936     
                                                                 
 dropout_1 (Dropout)         (None, 72)                0         
                                                                 
 dense_1 (Dense)             (None, 28)                2044      
                                                                 
 dropout_2 (Dropout)         (None, 28)                0         
                                                                 
 dense_2 (Dense)             (None, 10)                290       
                                                                 
=================================================================
Total params: 257,862
Trainable params: 257,606
Non-trainable params: 256
_________________________________________________________________
Taxa de aprendizado:  0.0001 Num de épocas:  235 Tamanho do lote:  256 Dropout:  0.23
Epoch 1/235
2024-06-21 18:18:12.845596: I tensorflow/stream_executor/cuda/cuda_dnn.cc:384] Loaded cuDNN version 8100
…
