…
To enable them in other operations, rebuild TensorFlow with the appropriate compiler flags.
2024-06-21 13:39:52.128809: I tensorflow/core/common_runtime/gpu/gpu_device.cc:1616] Created device /job:localhost/replica:0/task:0/device:GPU:0 with 6144 MB memory:  -> device: 0, name: NVIDIA GeForce RTX 4060 Ti, pci bus id: 0000:01:00.0, compute capability: 8.9
1 Physical GPUs, 1 Logical GPUs
Model: "sequential"
_________________________________________________________________
 Layer (type)                Output Shape              Param #   
=================================================================
 conv2d (Conv2D)             (None, 32, 32, 32)        896       
                                                                 
 max_pooling2d (MaxPooling2D  (None, 16, 16, 32)       0         
 )                                                               
                                                                 
 conv2d_1 (Conv2D)           (None, 16, 16, 32)        82976     
                                                                 
 batch_normalization (BatchN  (None, 16, 16, 32)       128       
 ormalization)                                                   
                                                                 
 conv2d_2 (Conv2D)           (None, 16, 16, 32)        82976     
                                                                 
 conv2d_3 (Conv2D)           (None, 16, 16, 256)       401664    
                                                                 
 max_pooling2d_1 (MaxPooling  (None, 8, 8, 256)        0         
 2D)                                                             
                                                                 
 dropout (Dropout)           (None, 8, 8, 256)         0         
                                                                 
 flatten (Flatten)           (None, 16384)             0         
                                                                 
 dense (Dense)               (None, 24)                393240    
                                                                 
 dropout_1 (Dropout)         (None, 24)                0         
                                                                 
 dense_1 (Dense)             (None, 126)               3150      
                                                                 
 dropout_2 (Dropout)         (None, 126)               0         
                                                                 
 dense_2 (Dense)             (None, 10)                1270      
                                                                 
=================================================================
Total params: 966,300
Trainable params: 966,236
Non-trainable params: 64
_________________________________________________________________
Taxa de aprendizado:  0.1 Num de épocas:  113 Tamanho do lote:  256 Dropout:  0.18
Epoch 1/113
2024-06-21 13:39:53.657485: I tensorflow/stream_executor/cuda/cuda_dnn.cc:384] Loaded cuDNN version 8100
…
