…
To enable them in other operations, rebuild TensorFlow with the appropriate compiler flags.
2024-07-26 22:08:21.011282: I tensorflow/core/common_runtime/gpu/gpu_device.cc:1616] Created device /job:localhost/replica:0/task:0/device:GPU:0 with 6656 MB memory:  -> device: 0, name: NVIDIA GeForce RTX 4060 Ti, pci bus id: 0000:01:00.0, compute capability: 8.9
1 Physical GPUs, 1 Logical GPUs
Model: "sequential"
_________________________________________________________________
 Layer (type)                Output Shape              Param #   
=================================================================
 conv2d (Conv2D)             (None, 32, 32, 32)        896       
                                                                 
 max_pooling2d (MaxPooling2D  (None, 16, 16, 32)       0         
 )                                                               
                                                                 
 batch_normalization (BatchN  (None, 16, 16, 32)       128       
 ormalization)                                                   
                                                                 
 conv2d_1 (Conv2D)           (None, 16, 16, 128)       495744    
                                                                 
 batch_normalization_1 (Batc  (None, 16, 16, 128)      512       
 hNormalization)                                                 
                                                                 
 dropout (Dropout)           (None, 16, 16, 128)       0         
                                                                 
 flatten (Flatten)           (None, 32768)             0         
                                                                 
 dense (Dense)               (None, 120)               3932280   
                                                                 
 dropout_1 (Dropout)         (None, 120)               0         
                                                                 
 dense_1 (Dense)             (None, 26)                3146      
                                                                 
 dropout_2 (Dropout)         (None, 26)                0         
                                                                 
 dense_2 (Dense)             (None, 10)                270       
                                                                 
=================================================================
Total params: 4,432,976
Trainable params: 4,432,656
Non-trainable params: 320
_________________________________________________________________
Taxa de aprendizado:  0.1 Num de épocas:  290 Tamanho do lote:  256 Dropout:  0.15
Epoch 1/290
2024-07-26 22:08:22.517129: I tensorflow/stream_executor/cuda/cuda_dnn.cc:384] Loaded cuDNN version 8100
…
