…
To enable them in other operations, rebuild TensorFlow with the appropriate compiler flags.
2024-07-26 19:22:16.517981: I tensorflow/core/common_runtime/gpu/gpu_device.cc:1616] Created device /job:localhost/replica:0/task:0/device:GPU:0 with 6656 MB memory:  -> device: 0, name: NVIDIA GeForce RTX 4060 Ti, pci bus id: 0000:01:00.0, compute capability: 8.9
1 Physical GPUs, 1 Logical GPUs
Model: "sequential"
_________________________________________________________________
 Layer (type)                Output Shape              Param #   
=================================================================
 conv2d (Conv2D)             (None, 32, 32, 32)        896       
                                                                 
 conv2d_1 (Conv2D)           (None, 32, 32, 128)       495744    
                                                                 
 max_pooling2d (MaxPooling2D  (None, 16, 16, 128)      0         
 )                                                               
                                                                 
 batch_normalization (BatchN  (None, 16, 16, 128)      512       
 ormalization)                                                   
                                                                 
 conv2d_2 (Conv2D)           (None, 16, 16, 64)        204864    
                                                                 
 max_pooling2d_1 (MaxPooling  (None, 8, 8, 64)         0         
 2D)                                                             
                                                                 
 conv2d_3 (Conv2D)           (None, 8, 8, 256)         1327360   
                                                                 
 max_pooling2d_2 (MaxPooling  (None, 4, 4, 256)        0         
 2D)                                                             
                                                                 
 batch_normalization_1 (Batc  (None, 4, 4, 256)        1024      
 hNormalization)                                                 
                                                                 
 dropout (Dropout)           (None, 4, 4, 256)         0         
                                                                 
 flatten (Flatten)           (None, 4096)              0         
                                                                 
 dense (Dense)               (None, 18)                73746     
                                                                 
 dropout_1 (Dropout)         (None, 18)                0         
                                                                 
 dense_1 (Dense)             (None, 10)                190       
                                                                 
=================================================================
Total params: 2,104,336
Trainable params: 2,103,568
Non-trainable params: 768
_________________________________________________________________
Taxa de aprendizado:  0.001 Num de épocas:  274 Tamanho do lote:  32 Dropout:  0.07
Epoch 1/274
2024-07-26 19:22:18.282949: I tensorflow/stream_executor/cuda/cuda_dnn.cc:384] Loaded cuDNN version 8100
…
