…
To enable them in other operations, rebuild TensorFlow with the appropriate compiler flags.
2024-07-26 21:03:38.115640: I tensorflow/core/common_runtime/gpu/gpu_device.cc:1616] Created device /job:localhost/replica:0/task:0/device:GPU:0 with 6656 MB memory:  -> device: 0, name: NVIDIA GeForce RTX 4060 Ti, pci bus id: 0000:01:00.0, compute capability: 8.9
1 Physical GPUs, 1 Logical GPUs
Model: "sequential"
_________________________________________________________________
 Layer (type)                Output Shape              Param #   
=================================================================
 conv2d (Conv2D)             (None, 32, 32, 32)        896       
                                                                 
 conv2d_1 (Conv2D)           (None, 32, 32, 256)       663808    
                                                                 
 conv2d_2 (Conv2D)           (None, 32, 32, 32)        991264    
                                                                 
 max_pooling2d (MaxPooling2D  (None, 16, 16, 32)       0         
 )                                                               
                                                                 
 dropout (Dropout)           (None, 16, 16, 32)        0         
                                                                 
 flatten (Flatten)           (None, 8192)              0         
                                                                 
 dense (Dense)               (None, 74)                606282    
                                                                 
 dropout_1 (Dropout)         (None, 74)                0         
                                                                 
 dense_1 (Dense)             (None, 8)                 600       
                                                                 
 dropout_2 (Dropout)         (None, 8)                 0         
                                                                 
 dense_2 (Dense)             (None, 10)                90        
                                                                 
=================================================================
Total params: 2,262,940
Trainable params: 2,262,940
Non-trainable params: 0
_________________________________________________________________
Taxa de aprendizado:  0.001 Num de épocas:  134 Tamanho do lote:  16 Dropout:  0.32
Epoch 1/134
2024-07-26 21:03:40.387202: I tensorflow/stream_executor/cuda/cuda_dnn.cc:384] Loaded cuDNN version 8100
…
