…
To enable them in other operations, rebuild TensorFlow with the appropriate compiler flags.
2024-07-26 23:34:28.066610: I tensorflow/core/common_runtime/gpu/gpu_device.cc:1616] Created device /job:localhost/replica:0/task:0/device:GPU:0 with 6656 MB memory:  -> device: 0, name: NVIDIA GeForce RTX 4060 Ti, pci bus id: 0000:01:00.0, compute capability: 8.9
1 Physical GPUs, 1 Logical GPUs
Model: "sequential"
_________________________________________________________________
 Layer (type)                Output Shape              Param #   
=================================================================
 conv2d (Conv2D)             (None, 32, 32, 32)        896       
                                                                 
 batch_normalization (BatchN  (None, 32, 32, 32)       128       
 ormalization)                                                   
                                                                 
 conv2d_1 (Conv2D)           (None, 32, 32, 256)       205056    
                                                                 
 max_pooling2d (MaxPooling2D  (None, 16, 16, 256)      0         
 )                                                               
                                                                 
 batch_normalization_1 (Batc  (None, 16, 16, 256)      1024      
 hNormalization)                                                 
                                                                 
 conv2d_2 (Conv2D)           (None, 16, 16, 32)        73760     
                                                                 
 conv2d_3 (Conv2D)           (None, 16, 16, 64)        247872    
                                                                 
 max_pooling2d_1 (MaxPooling  (None, 8, 8, 64)         0         
 2D)                                                             
                                                                 
 batch_normalization_2 (Batc  (None, 8, 8, 64)         256       
 hNormalization)                                                 
                                                                 
 dropout (Dropout)           (None, 8, 8, 64)          0         
                                                                 
 flatten (Flatten)           (None, 4096)              0         
                                                                 
 dense (Dense)               (None, 20)                81940     
                                                                 
 dropout_1 (Dropout)         (None, 20)                0         
                                                                 
 dense_1 (Dense)             (None, 10)                210       
                                                                 
=================================================================
Total params: 611,142
Trainable params: 610,438
Non-trainable params: 704
_________________________________________________________________
Taxa de aprendizado:  0.001 Num de épocas:  164 Tamanho do lote:  64 Dropout:  0.03
Epoch 1/164
2024-07-26 23:34:29.575698: I tensorflow/stream_executor/cuda/cuda_dnn.cc:384] Loaded cuDNN version 8100
…
