…
To enable them in other operations, rebuild TensorFlow with the appropriate compiler flags.
2024-07-26 19:02:02.228705: I tensorflow/core/common_runtime/gpu/gpu_device.cc:1616] Created device /job:localhost/replica:0/task:0/device:GPU:0 with 6656 MB memory:  -> device: 0, name: NVIDIA GeForce RTX 4060 Ti, pci bus id: 0000:01:00.0, compute capability: 8.9
1 Physical GPUs, 1 Logical GPUs
Model: "sequential"
_________________________________________________________________
 Layer (type)                Output Shape              Param #   
=================================================================
 conv2d (Conv2D)             (None, 32, 32, 32)        896       
                                                                 
 conv2d_1 (Conv2D)           (None, 32, 32, 256)       991488    
                                                                 
 max_pooling2d (MaxPooling2D  (None, 16, 16, 256)      0         
 )                                                               
                                                                 
 conv2d_2 (Conv2D)           (None, 16, 16, 32)        401440    
                                                                 
 conv2d_3 (Conv2D)           (None, 16, 16, 32)        123936    
                                                                 
 max_pooling2d_1 (MaxPooling  (None, 8, 8, 32)         0         
 2D)                                                             
                                                                 
 batch_normalization (BatchN  (None, 8, 8, 32)         128       
 ormalization)                                                   
                                                                 
 conv2d_4 (Conv2D)           (None, 8, 8, 256)         73984     
                                                                 
 max_pooling2d_2 (MaxPooling  (None, 4, 4, 256)        0         
 2D)                                                             
                                                                 
 batch_normalization_1 (Batc  (None, 4, 4, 256)        1024      
 hNormalization)                                                 
                                                                 
 dropout (Dropout)           (None, 4, 4, 256)         0         
                                                                 
 flatten (Flatten)           (None, 4096)              0         
                                                                 
 dense (Dense)               (None, 10)                40970     
                                                                 
=================================================================
Total params: 1,633,866
Trainable params: 1,633,290
Non-trainable params: 576
_________________________________________________________________
Taxa de aprendizado:  0.01 Num de pocas:  88 Tamanho do lote:  64 Dropout:  0.28
Epoch 1/88
2024-07-26 19:02:03.451170: I tensorflow/stream_executor/cuda/cuda_dnn.cc:384] Loaded cuDNN version 8100
…
