…
To enable them in other operations, rebuild TensorFlow with the appropriate compiler flags.
2024-07-27 04:21:48.088997: I tensorflow/core/common_runtime/gpu/gpu_device.cc:1616] Created device /job:localhost/replica:0/task:0/device:GPU:0 with 6656 MB memory:  -> device: 0, name: NVIDIA GeForce RTX 4060 Ti, pci bus id: 0000:01:00.0, compute capability: 8.9
1 Physical GPUs, 1 Logical GPUs
Model: "sequential"
_________________________________________________________________
 Layer (type)                Output Shape              Param #   
=================================================================
 conv2d (Conv2D)             (None, 32, 32, 32)        896       
                                                                 
 conv2d_1 (Conv2D)           (None, 32, 32, 64)        51264     
                                                                 
 max_pooling2d (MaxPooling2D  (None, 16, 16, 64)       0         
 )                                                               
                                                                 
 batch_normalization (BatchN  (None, 16, 16, 64)       256       
 ormalization)                                                   
                                                                 
 conv2d_2 (Conv2D)           (None, 16, 16, 64)        36928     
                                                                 
 conv2d_3 (Conv2D)           (None, 16, 16, 256)       803072    
                                                                 
 batch_normalization_1 (Batc  (None, 16, 16, 256)      1024      
 hNormalization)                                                 
                                                                 
 conv2d_4 (Conv2D)           (None, 16, 16, 32)        663584    
                                                                 
 batch_normalization_2 (Batc  (None, 16, 16, 32)       128       
 hNormalization)                                                 
                                                                 
 conv2d_5 (Conv2D)           (None, 16, 16, 64)        18496     
                                                                 
 dropout (Dropout)           (None, 16, 16, 64)        0         
                                                                 
 flatten (Flatten)           (None, 16384)             0         
                                                                 
 dense (Dense)               (None, 92)                1507420   
                                                                 
 dropout_1 (Dropout)         (None, 92)                0         
                                                                 
 dense_1 (Dense)             (None, 10)                930       
                                                                 
=================================================================
Total params: 3,083,998
Trainable params: 3,083,294
Non-trainable params: 704
_________________________________________________________________
Taxa de aprendizado:  0.0001 Num de épocas:  247 Tamanho do lote:  256 Dropout:  0.3
Epoch 1/247
2024-07-27 04:21:49.595332: I tensorflow/stream_executor/cuda/cuda_dnn.cc:384] Loaded cuDNN version 8100
…
