…
To enable them in other operations, rebuild TensorFlow with the appropriate compiler flags.
2024-07-27 00:16:43.563327: I tensorflow/core/common_runtime/gpu/gpu_device.cc:1616] Created device /job:localhost/replica:0/task:0/device:GPU:0 with 6656 MB memory:  -> device: 0, name: NVIDIA GeForce RTX 4060 Ti, pci bus id: 0000:01:00.0, compute capability: 8.9
1 Physical GPUs, 1 Logical GPUs
Model: "sequential"
_________________________________________________________________
 Layer (type)                Output Shape              Param #   
=================================================================
 conv2d (Conv2D)             (None, 32, 32, 32)        896       
                                                                 
 conv2d_1 (Conv2D)           (None, 32, 32, 64)        100416    
                                                                 
 conv2d_2 (Conv2D)           (None, 32, 32, 32)        247840    
                                                                 
 max_pooling2d (MaxPooling2D  (None, 16, 16, 32)       0         
 )                                                               
                                                                 
 conv2d_3 (Conv2D)           (None, 16, 16, 128)       102528    
                                                                 
 batch_normalization (BatchN  (None, 16, 16, 128)      512       
 ormalization)                                                   
                                                                 
 dropout (Dropout)           (None, 16, 16, 128)       0         
                                                                 
 flatten (Flatten)           (None, 32768)             0         
                                                                 
 dense (Dense)               (None, 88)                2883672   
                                                                 
 dropout_1 (Dropout)         (None, 88)                0         
                                                                 
 dense_1 (Dense)             (None, 10)                890       
                                                                 
=================================================================
Total params: 3,336,754
Trainable params: 3,336,498
Non-trainable params: 256
_________________________________________________________________
Taxa de aprendizado:  0.01 Num de épocas:  150 Tamanho do lote:  32 Dropout:  0.24
Epoch 1/150
2024-07-27 00:16:45.286515: I tensorflow/stream_executor/cuda/cuda_dnn.cc:384] Loaded cuDNN version 8100
…
