…
To enable them in other operations, rebuild TensorFlow with the appropriate compiler flags.
2024-07-27 00:22:55.490582: I tensorflow/core/common_runtime/gpu/gpu_device.cc:1616] Created device /job:localhost/replica:0/task:0/device:GPU:0 with 6656 MB memory:  -> device: 0, name: NVIDIA GeForce RTX 4060 Ti, pci bus id: 0000:01:00.0, compute capability: 8.9
1 Physical GPUs, 1 Logical GPUs
Model: "sequential"
_________________________________________________________________
 Layer (type)                Output Shape              Param #   
=================================================================
 conv2d (Conv2D)             (None, 32, 32, 32)        896       
                                                                 
 conv2d_1 (Conv2D)           (None, 32, 32, 32)        25632     
                                                                 
 conv2d_2 (Conv2D)           (None, 32, 32, 32)        123936    
                                                                 
 max_pooling2d (MaxPooling2D  (None, 16, 16, 32)       0         
 )                                                               
                                                                 
 conv2d_3 (Conv2D)           (None, 16, 16, 64)        165952    
                                                                 
 max_pooling2d_1 (MaxPooling  (None, 8, 8, 64)         0         
 2D)                                                             
                                                                 
 batch_normalization (BatchN  (None, 8, 8, 64)         256       
 ormalization)                                                   
                                                                 
 dropout (Dropout)           (None, 8, 8, 64)          0         
                                                                 
 flatten (Flatten)           (None, 4096)              0         
                                                                 
 dense (Dense)               (None, 52)                213044    
                                                                 
 dropout_1 (Dropout)         (None, 52)                0         
                                                                 
 dense_1 (Dense)             (None, 28)                1484      
                                                                 
 dropout_2 (Dropout)         (None, 28)                0         
                                                                 
 dense_2 (Dense)             (None, 10)                290       
                                                                 
=================================================================
Total params: 531,490
Trainable params: 531,362
Non-trainable params: 128
_________________________________________________________________
Taxa de aprendizado:  0.001 Num de épocas:  104 Tamanho do lote:  128 Dropout:  0.49
Epoch 1/104
2024-07-27 00:22:56.744667: I tensorflow/stream_executor/cuda/cuda_dnn.cc:384] Loaded cuDNN version 8100
…
