…
To enable them in other operations, rebuild TensorFlow with the appropriate compiler flags.
2024-07-27 03:05:16.907163: I tensorflow/core/common_runtime/gpu/gpu_device.cc:1616] Created device /job:localhost/replica:0/task:0/device:GPU:0 with 6656 MB memory:  -> device: 0, name: NVIDIA GeForce RTX 4060 Ti, pci bus id: 0000:01:00.0, compute capability: 8.9
1 Physical GPUs, 1 Logical GPUs
Model: "sequential"
_________________________________________________________________
 Layer (type)                Output Shape              Param #   
=================================================================
 conv2d (Conv2D)             (None, 32, 32, 32)        896       
                                                                 
 dropout (Dropout)           (None, 32, 32, 32)        0         
                                                                 
 flatten (Flatten)           (None, 32768)             0         
                                                                 
 dense (Dense)               (None, 86)                2818134   
                                                                 
 dropout_1 (Dropout)         (None, 86)                0         
                                                                 
 dense_1 (Dense)             (None, 112)               9744      
                                                                 
 dropout_2 (Dropout)         (None, 112)               0         
                                                                 
 dense_2 (Dense)             (None, 10)                1130      
                                                                 
=================================================================
Total params: 2,829,904
Trainable params: 2,829,904
Non-trainable params: 0
_________________________________________________________________
Taxa de aprendizado:  0.0001 Num de épocas:  220 Tamanho do lote:  256 Dropout:  0.05
Epoch 1/220
2024-07-27 03:05:18.665814: I tensorflow/stream_executor/cuda/cuda_dnn.cc:384] Loaded cuDNN version 8100
…
