…
To enable them in other operations, rebuild TensorFlow with the appropriate compiler flags.
2024-07-26 02:26:32.704057: I tensorflow/core/common_runtime/gpu/gpu_device.cc:1616] Created device /job:localhost/replica:0/task:0/device:GPU:0 with 6656 MB memory:  -> device: 0, name: NVIDIA GeForce RTX 4060 Ti, pci bus id: 0000:01:00.0, compute capability: 8.9
1 Physical GPUs, 1 Logical GPUs
Model: "sequential"
_________________________________________________________________
 Layer (type)                Output Shape              Param #   
=================================================================
 conv2d (Conv2D)             (None, 32, 32, 32)        896       
                                                                 
 max_pooling2d (MaxPooling2D  (None, 16, 16, 32)       0         
 )                                                               
                                                                 
 conv2d_1 (Conv2D)           (None, 16, 16, 128)       495744    
                                                                 
 max_pooling2d_1 (MaxPooling  (None, 8, 8, 128)        0         
 2D)                                                             
                                                                 
 batch_normalization (BatchN  (None, 8, 8, 128)        512       
 ormalization)                                                   
                                                                 
 conv2d_2 (Conv2D)           (None, 8, 8, 128)         802944    
                                                                 
 conv2d_3 (Conv2D)           (None, 8, 8, 32)          331808    
                                                                 
 batch_normalization_1 (Batc  (None, 8, 8, 32)         128       
 hNormalization)                                                 
                                                                 
 dropout (Dropout)           (None, 8, 8, 32)          0         
                                                                 
 flatten (Flatten)           (None, 2048)              0         
                                                                 
 dense (Dense)               (None, 66)                135234    
                                                                 
 dropout_1 (Dropout)         (None, 66)                0         
                                                                 
 dense_1 (Dense)             (None, 10)                670       
                                                                 
=================================================================
Total params: 1,767,936
Trainable params: 1,767,616
Non-trainable params: 320
_________________________________________________________________
Taxa de aprendizado:  0.01 Num de épocas:  101 Tamanho do lote:  64 Dropout:  0.07
Epoch 1/101
2024-07-26 02:26:34.193449: I tensorflow/stream_executor/cuda/cuda_dnn.cc:384] Loaded cuDNN version 8100
…
