…
To enable them in other operations, rebuild TensorFlow with the appropriate compiler flags.
2024-07-27 09:33:52.792167: I tensorflow/core/common_runtime/gpu/gpu_device.cc:1616] Created device /job:localhost/replica:0/task:0/device:GPU:0 with 6656 MB memory:  -> device: 0, name: NVIDIA GeForce RTX 4060 Ti, pci bus id: 0000:01:00.0, compute capability: 8.9
1 Physical GPUs, 1 Logical GPUs
Model: "sequential"
_________________________________________________________________
 Layer (type)                Output Shape              Param #   
=================================================================
 conv2d (Conv2D)             (None, 32, 32, 32)        896       
                                                                 
 max_pooling2d (MaxPooling2D  (None, 16, 16, 32)       0         
 )                                                               
                                                                 
 batch_normalization (BatchN  (None, 16, 16, 32)       128       
 ormalization)                                                   
                                                                 
 conv2d_1 (Conv2D)           (None, 16, 16, 32)        123936    
                                                                 
 max_pooling2d_1 (MaxPooling  (None, 8, 8, 32)         0         
 2D)                                                             
                                                                 
 conv2d_2 (Conv2D)           (None, 8, 8, 256)         663808    
                                                                 
 max_pooling2d_2 (MaxPooling  (None, 4, 4, 256)        0         
 2D)                                                             
                                                                 
 batch_normalization_1 (Batc  (None, 4, 4, 256)        1024      
 hNormalization)                                                 
                                                                 
 dropout (Dropout)           (None, 4, 4, 256)         0         
                                                                 
 flatten (Flatten)           (None, 4096)              0         
                                                                 
 dense (Dense)               (None, 76)                311372    
                                                                 
 dropout_1 (Dropout)         (None, 76)                0         
                                                                 
 dense_1 (Dense)             (None, 10)                770       
                                                                 
=================================================================
Total params: 1,101,934
Trainable params: 1,101,358
Non-trainable params: 576
_________________________________________________________________
Taxa de aprendizado:  0.001 Num de épocas:  143 Tamanho do lote:  256 Dropout:  0.38
Epoch 1/143
2024-07-27 09:33:54.442479: I tensorflow/stream_executor/cuda/cuda_dnn.cc:384] Loaded cuDNN version 8100
…
