…
To enable them in other operations, rebuild TensorFlow with the appropriate compiler flags.
2024-07-27 10:46:16.968678: I tensorflow/core/common_runtime/gpu/gpu_device.cc:1616] Created device /job:localhost/replica:0/task:0/device:GPU:0 with 6656 MB memory:  -> device: 0, name: NVIDIA GeForce RTX 4060 Ti, pci bus id: 0000:01:00.0, compute capability: 8.9
1 Physical GPUs, 1 Logical GPUs
Model: "sequential"
_________________________________________________________________
 Layer (type)                Output Shape              Param #   
=================================================================
 conv2d (Conv2D)             (None, 32, 32, 32)        896       
                                                                 
 conv2d_1 (Conv2D)           (None, 32, 32, 256)       991488    
                                                                 
 max_pooling2d (MaxPooling2D  (None, 16, 16, 256)      0         
 )                                                               
                                                                 
 batch_normalization (BatchN  (None, 16, 16, 256)      1024      
 ormalization)                                                   
                                                                 
 conv2d_2 (Conv2D)           (None, 16, 16, 64)        1327168   
                                                                 
 conv2d_3 (Conv2D)           (None, 16, 16, 128)       663680    
                                                                 
 max_pooling2d_1 (MaxPooling  (None, 8, 8, 128)        0         
 2D)                                                             
                                                                 
 batch_normalization_1 (Batc  (None, 8, 8, 128)        512       
 hNormalization)                                                 
                                                                 
 dropout (Dropout)           (None, 8, 8, 128)         0         
                                                                 
 flatten (Flatten)           (None, 8192)              0         
                                                                 
 dense (Dense)               (None, 10)                81930     
                                                                 
 dropout_1 (Dropout)         (None, 10)                0         
                                                                 
 dense_1 (Dense)             (None, 10)                110       
                                                                 
=================================================================
Total params: 3,066,808
Trainable params: 3,066,040
Non-trainable params: 768
_________________________________________________________________
Taxa de aprendizado:  0.0001 Num de épocas:  100 Tamanho do lote:  32 Dropout:  0.18
Epoch 1/100
2024-07-27 10:46:18.434204: I tensorflow/stream_executor/cuda/cuda_dnn.cc:384] Loaded cuDNN version 8100
…
