…
To enable them in other operations, rebuild TensorFlow with the appropriate compiler flags.
2024-07-27 10:26:12.021113: I tensorflow/core/common_runtime/gpu/gpu_device.cc:1616] Created device /job:localhost/replica:0/task:0/device:GPU:0 with 6656 MB memory:  -> device: 0, name: NVIDIA GeForce RTX 4060 Ti, pci bus id: 0000:01:00.0, compute capability: 8.9
1 Physical GPUs, 1 Logical GPUs
Model: "sequential"
_________________________________________________________________
 Layer (type)                Output Shape              Param #   
=================================================================
 conv2d (Conv2D)             (None, 32, 32, 32)        896       
                                                                 
 conv2d_1 (Conv2D)           (None, 32, 32, 64)        51264     
                                                                 
 batch_normalization (BatchN  (None, 32, 32, 64)       256       
 ormalization)                                                   
                                                                 
 conv2d_2 (Conv2D)           (None, 32, 32, 32)        100384    
                                                                 
 conv2d_3 (Conv2D)           (None, 32, 32, 128)       102528    
                                                                 
 batch_normalization_1 (Batc  (None, 32, 32, 128)      512       
 hNormalization)                                                 
                                                                 
 conv2d_4 (Conv2D)           (None, 32, 32, 32)        200736    
                                                                 
 batch_normalization_2 (Batc  (None, 32, 32, 32)       128       
 hNormalization)                                                 
                                                                 
 dropout (Dropout)           (None, 32, 32, 32)        0         
                                                                 
 flatten (Flatten)           (None, 32768)             0         
                                                                 
 dense (Dense)               (None, 76)                2490444   
                                                                 
 dropout_1 (Dropout)         (None, 76)                0         
                                                                 
 dense_1 (Dense)             (None, 10)                770       
                                                                 
=================================================================
Total params: 2,947,918
Trainable params: 2,947,470
Non-trainable params: 448
_________________________________________________________________
Taxa de aprendizado:  0.01 Num de épocas:  175 Tamanho do lote:  128 Dropout:  0.24
Epoch 1/175
2024-07-27 10:26:14.159889: I tensorflow/stream_executor/cuda/cuda_dnn.cc:384] Loaded cuDNN version 8100
…
