…
To enable them in other operations, rebuild TensorFlow with the appropriate compiler flags.
2024-07-27 11:14:55.341233: I tensorflow/core/common_runtime/gpu/gpu_device.cc:1616] Created device /job:localhost/replica:0/task:0/device:GPU:0 with 6656 MB memory:  -> device: 0, name: NVIDIA GeForce RTX 4060 Ti, pci bus id: 0000:01:00.0, compute capability: 8.9
1 Physical GPUs, 1 Logical GPUs
Model: "sequential"
_________________________________________________________________
 Layer (type)                Output Shape              Param #   
=================================================================
 conv2d (Conv2D)             (None, 32, 32, 32)        896       
                                                                 
 conv2d_1 (Conv2D)           (None, 32, 32, 128)       36992     
                                                                 
 max_pooling2d (MaxPooling2D  (None, 16, 16, 128)      0         
 )                                                               
                                                                 
 batch_normalization (BatchN  (None, 16, 16, 128)      512       
 ormalization)                                                   
                                                                 
 conv2d_2 (Conv2D)           (None, 16, 16, 128)       409728    
                                                                 
 batch_normalization_1 (Batc  (None, 16, 16, 128)      512       
 hNormalization)                                                 
                                                                 
 conv2d_3 (Conv2D)           (None, 16, 16, 256)       819456    
                                                                 
 batch_normalization_2 (Batc  (None, 16, 16, 256)      1024      
 hNormalization)                                                 
                                                                 
 dropout (Dropout)           (None, 16, 16, 256)       0         
                                                                 
 flatten (Flatten)           (None, 65536)             0         
                                                                 
 dense (Dense)               (None, 104)               6815848   
                                                                 
 dropout_1 (Dropout)         (None, 104)               0         
                                                                 
 dense_1 (Dense)             (None, 10)                1050      
                                                                 
=================================================================
Total params: 8,086,018
Trainable params: 8,084,994
Non-trainable params: 1,024
_________________________________________________________________
Taxa de aprendizado:  0.001 Num de épocas:  261 Tamanho do lote:  64 Dropout:  0.15
Epoch 1/261
2024-07-27 11:14:56.834385: I tensorflow/stream_executor/cuda/cuda_dnn.cc:384] Loaded cuDNN version 8100
…
