…
To enable them in other operations, rebuild TensorFlow with the appropriate compiler flags.
2024-07-27 12:34:30.295988: I tensorflow/core/common_runtime/gpu/gpu_device.cc:1616] Created device /job:localhost/replica:0/task:0/device:GPU:0 with 6656 MB memory:  -> device: 0, name: NVIDIA GeForce RTX 4060 Ti, pci bus id: 0000:01:00.0, compute capability: 8.9
1 Physical GPUs, 1 Logical GPUs
Model: "sequential"
_________________________________________________________________
 Layer (type)                Output Shape              Param #   
=================================================================
 conv2d (Conv2D)             (None, 32, 32, 32)        896       
                                                                 
 max_pooling2d (MaxPooling2D  (None, 16, 16, 32)       0         
 )                                                               
                                                                 
 conv2d_1 (Conv2D)           (None, 16, 16, 256)       991488    
                                                                 
 max_pooling2d_1 (MaxPooling  (None, 8, 8, 256)        0         
 2D)                                                             
                                                                 
 batch_normalization (BatchN  (None, 8, 8, 256)        1024      
 ormalization)                                                   
                                                                 
 conv2d_2 (Conv2D)           (None, 8, 8, 32)          204832    
                                                                 
 conv2d_3 (Conv2D)           (None, 8, 8, 128)         331904    
                                                                 
 max_pooling2d_2 (MaxPooling  (None, 4, 4, 128)        0         
 2D)                                                             
                                                                 
 batch_normalization_1 (Batc  (None, 4, 4, 128)        512       
 hNormalization)                                                 
                                                                 
 dropout (Dropout)           (None, 4, 4, 128)         0         
                                                                 
 flatten (Flatten)           (None, 2048)              0         
                                                                 
 dense (Dense)               (None, 10)                20490     
                                                                 
=================================================================
Total params: 1,551,146
Trainable params: 1,550,378
Non-trainable params: 768
_________________________________________________________________
Taxa de aprendizado:  0.001 Num de épocas:  120 Tamanho do lote:  32 Dropout:  0.11
Epoch 1/120
2024-07-27 12:34:31.921126: I tensorflow/stream_executor/cuda/cuda_dnn.cc:384] Loaded cuDNN version 8100
…
