…
To enable them in other operations, rebuild TensorFlow with the appropriate compiler flags.
2024-07-27 19:31:22.277320: I tensorflow/core/common_runtime/gpu/gpu_device.cc:1616] Created device /job:localhost/replica:0/task:0/device:GPU:0 with 6656 MB memory:  -> device: 0, name: NVIDIA GeForce RTX 4060 Ti, pci bus id: 0000:01:00.0, compute capability: 8.9
1 Physical GPUs, 1 Logical GPUs
Model: "sequential"
_________________________________________________________________
 Layer (type)                Output Shape              Param #   
=================================================================
 conv2d (Conv2D)             (None, 32, 32, 32)        896       
                                                                 
 conv2d_1 (Conv2D)           (None, 32, 32, 256)       663808    
                                                                 
 max_pooling2d (MaxPooling2D  (None, 16, 16, 256)      0         
 )                                                               
                                                                 
 batch_normalization (BatchN  (None, 16, 16, 256)      1024      
 ormalization)                                                   
                                                                 
 conv2d_2 (Conv2D)           (None, 16, 16, 64)        409664    
                                                                 
 conv2d_3 (Conv2D)           (None, 16, 16, 64)        495680    
                                                                 
 max_pooling2d_1 (MaxPooling  (None, 8, 8, 64)         0         
 2D)                                                             
                                                                 
 batch_normalization_1 (Batc  (None, 8, 8, 64)         256       
 hNormalization)                                                 
                                                                 
 conv2d_4 (Conv2D)           (None, 8, 8, 32)          247840    
                                                                 
 batch_normalization_2 (Batc  (None, 8, 8, 32)         128       
 hNormalization)                                                 
                                                                 
 conv2d_5 (Conv2D)           (None, 8, 8, 64)          165952    
                                                                 
 dropout (Dropout)           (None, 8, 8, 64)          0         
                                                                 
 flatten (Flatten)           (None, 4096)              0         
                                                                 
 dense (Dense)               (None, 10)                40970     
                                                                 
=================================================================
Total params: 2,026,218
Trainable params: 2,025,514
Non-trainable params: 704
_________________________________________________________________
Taxa de aprendizado:  0.001 Num de épocas:  234 Tamanho do lote:  128 Dropout:  0.0
Epoch 1/234
2024-07-27 19:31:24.262035: I tensorflow/stream_executor/cuda/cuda_dnn.cc:384] Loaded cuDNN version 8100
…
