…
To enable them in other operations, rebuild TensorFlow with the appropriate compiler flags.
2024-07-27 19:49:44.137683: I tensorflow/core/common_runtime/gpu/gpu_device.cc:1616] Created device /job:localhost/replica:0/task:0/device:GPU:0 with 6656 MB memory:  -> device: 0, name: NVIDIA GeForce RTX 4060 Ti, pci bus id: 0000:01:00.0, compute capability: 8.9
1 Physical GPUs, 1 Logical GPUs
Model: "sequential"
_________________________________________________________________
 Layer (type)                Output Shape              Param #   
=================================================================
 conv2d (Conv2D)             (None, 32, 32, 32)        896       
                                                                 
 max_pooling2d (MaxPooling2D  (None, 16, 16, 32)       0         
 )                                                               
                                                                 
 batch_normalization (BatchN  (None, 16, 16, 32)       128       
 ormalization)                                                   
                                                                 
 conv2d_1 (Conv2D)           (None, 16, 16, 256)       663808    
                                                                 
 max_pooling2d_1 (MaxPooling  (None, 8, 8, 256)        0         
 2D)                                                             
                                                                 
 batch_normalization_1 (Batc  (None, 8, 8, 256)        1024      
 hNormalization)                                                 
                                                                 
 conv2d_2 (Conv2D)           (None, 8, 8, 32)          401440    
                                                                 
 max_pooling2d_2 (MaxPooling  (None, 4, 4, 32)         0         
 2D)                                                             
                                                                 
 dropout (Dropout)           (None, 4, 4, 32)          0         
                                                                 
 flatten (Flatten)           (None, 512)               0         
                                                                 
 dense (Dense)               (None, 114)               58482     
                                                                 
 dropout_1 (Dropout)         (None, 114)               0         
                                                                 
 dense_1 (Dense)             (None, 10)                1150      
                                                                 
=================================================================
Total params: 1,126,928
Trainable params: 1,126,352
Non-trainable params: 576
_________________________________________________________________
Taxa de aprendizado:  0.0001 Num de épocas:  213 Tamanho do lote:  128 Dropout:  0.18
Epoch 1/213
2024-07-27 19:49:45.530491: I tensorflow/stream_executor/cuda/cuda_dnn.cc:384] Loaded cuDNN version 8100
…
