…
To enable them in other operations, rebuild TensorFlow with the appropriate compiler flags.
2024-07-27 21:11:36.356037: I tensorflow/core/common_runtime/gpu/gpu_device.cc:1616] Created device /job:localhost/replica:0/task:0/device:GPU:0 with 6656 MB memory:  -> device: 0, name: NVIDIA GeForce RTX 4060 Ti, pci bus id: 0000:01:00.0, compute capability: 8.9
1 Physical GPUs, 1 Logical GPUs
Model: "sequential"
_________________________________________________________________
 Layer (type)                Output Shape              Param #   
=================================================================
 conv2d (Conv2D)             (None, 32, 32, 32)        896       
                                                                 
 conv2d_1 (Conv2D)           (None, 32, 32, 128)       200832    
                                                                 
 max_pooling2d (MaxPooling2D  (None, 16, 16, 128)      0         
 )                                                               
                                                                 
 batch_normalization (BatchN  (None, 16, 16, 128)      512       
 ormalization)                                                   
                                                                 
 conv2d_2 (Conv2D)           (None, 16, 16, 64)        73792     
                                                                 
 conv2d_3 (Conv2D)           (None, 16, 16, 256)       1982720   
                                                                 
 max_pooling2d_1 (MaxPooling  (None, 8, 8, 256)        0         
 2D)                                                             
                                                                 
 batch_normalization_1 (Batc  (None, 8, 8, 256)        1024      
 hNormalization)                                                 
                                                                 
 conv2d_4 (Conv2D)           (None, 8, 8, 32)          991264    
                                                                 
 max_pooling2d_2 (MaxPooling  (None, 4, 4, 32)         0         
 2D)                                                             
                                                                 
 batch_normalization_2 (Batc  (None, 4, 4, 32)         128       
 hNormalization)                                                 
                                                                 
 conv2d_5 (Conv2D)           (None, 4, 4, 32)          82976     
                                                                 
 max_pooling2d_3 (MaxPooling  (None, 2, 2, 32)         0         
 2D)                                                             
                                                                 
 dropout (Dropout)           (None, 2, 2, 32)          0         
                                                                 
 flatten (Flatten)           (None, 128)               0         
                                                                 
 dense (Dense)               (None, 10)                1290      
                                                                 
=================================================================
Total params: 3,335,434
Trainable params: 3,334,602
Non-trainable params: 832
_________________________________________________________________
Taxa de aprendizado:  0.01 Num de épocas:  62 Tamanho do lote:  16 Dropout:  0.18
Epoch 1/62
2024-07-27 21:11:37.574492: I tensorflow/stream_executor/cuda/cuda_dnn.cc:384] Loaded cuDNN version 8100
…
