…
To enable them in other operations, rebuild TensorFlow with the appropriate compiler flags.
2024-07-27 23:55:01.817518: I tensorflow/core/common_runtime/gpu/gpu_device.cc:1616] Created device /job:localhost/replica:0/task:0/device:GPU:0 with 6656 MB memory:  -> device: 0, name: NVIDIA GeForce RTX 4060 Ti, pci bus id: 0000:01:00.0, compute capability: 8.9
1 Physical GPUs, 1 Logical GPUs
Model: "sequential"
_________________________________________________________________
 Layer (type)                Output Shape              Param #   
=================================================================
 conv2d (Conv2D)             (None, 32, 32, 32)        896       
                                                                 
 conv2d_1 (Conv2D)           (None, 32, 32, 128)       102528    
                                                                 
 dropout (Dropout)           (None, 32, 32, 128)       0         
                                                                 
 flatten (Flatten)           (None, 131072)            0         
                                                                 
 dense (Dense)               (None, 82)                10747986  
                                                                 
 dropout_1 (Dropout)         (None, 82)                0         
                                                                 
 dense_1 (Dense)             (None, 10)                830       
                                                                 
=================================================================
Total params: 10,852,240
Trainable params: 10,852,240
Non-trainable params: 0
_________________________________________________________________
Taxa de aprendizado:  1e-05 Num de épocas:  150 Tamanho do lote:  16 Dropout:  0.35
Epoch 1/150
2024-07-27 23:55:03.510660: I tensorflow/stream_executor/cuda/cuda_dnn.cc:384] Loaded cuDNN version 8100
…
