…
To enable them in other operations, rebuild TensorFlow with the appropriate compiler flags.
2024-07-26 01:12:22.480511: I tensorflow/core/common_runtime/gpu/gpu_device.cc:1616] Created device /job:localhost/replica:0/task:0/device:GPU:0 with 6656 MB memory:  -> device: 0, name: NVIDIA GeForce RTX 4060 Ti, pci bus id: 0000:01:00.0, compute capability: 8.9
1 Physical GPUs, 1 Logical GPUs
Model: "sequential"
_________________________________________________________________
 Layer (type)                Output Shape              Param #   
=================================================================
 conv2d (Conv2D)             (None, 32, 32, 32)        896       
                                                                 
 dropout (Dropout)           (None, 32, 32, 32)        0         
                                                                 
 flatten (Flatten)           (None, 32768)             0         
                                                                 
 dense (Dense)               (None, 100)               3276900   
                                                                 
 dropout_1 (Dropout)         (None, 100)               0         
                                                                 
 dense_1 (Dense)             (None, 78)                7878      
                                                                 
 dropout_2 (Dropout)         (None, 78)                0         
                                                                 
 dense_2 (Dense)             (None, 10)                790       
                                                                 
=================================================================
Total params: 3,286,464
Trainable params: 3,286,464
Non-trainable params: 0
_________________________________________________________________
Taxa de aprendizado:  0.01 Num de épocas:  189 Tamanho do lote:  16 Dropout:  0.04
Epoch 1/189
2024-07-26 01:12:23.965798: I tensorflow/stream_executor/cuda/cuda_dnn.cc:384] Loaded cuDNN version 8100
…
