…
To enable them in other operations, rebuild TensorFlow with the appropriate compiler flags.
2024-07-28 01:34:51.133098: I tensorflow/core/common_runtime/gpu/gpu_device.cc:1616] Created device /job:localhost/replica:0/task:0/device:GPU:0 with 6656 MB memory:  -> device: 0, name: NVIDIA GeForce RTX 4060 Ti, pci bus id: 0000:01:00.0, compute capability: 8.9
1 Physical GPUs, 1 Logical GPUs
Model: "sequential"
_________________________________________________________________
 Layer (type)                Output Shape              Param #   
=================================================================
 conv2d (Conv2D)             (None, 32, 32, 32)        896       
                                                                 
 conv2d_1 (Conv2D)           (None, 32, 32, 128)       102528    
                                                                 
 conv2d_2 (Conv2D)           (None, 32, 32, 32)        495648    
                                                                 
 max_pooling2d (MaxPooling2D  (None, 16, 16, 32)       0         
 )                                                               
                                                                 
 conv2d_3 (Conv2D)           (None, 16, 16, 64)        247872    
                                                                 
 dropout (Dropout)           (None, 16, 16, 64)        0         
                                                                 
 flatten (Flatten)           (None, 16384)             0         
                                                                 
 dense (Dense)               (None, 106)               1736810   
                                                                 
 dropout_1 (Dropout)         (None, 106)               0         
                                                                 
 dense_1 (Dense)             (None, 10)                1070      
                                                                 
=================================================================
Total params: 2,584,824
Trainable params: 2,584,824
Non-trainable params: 0
_________________________________________________________________
Taxa de aprendizado:  0.001 Num de épocas:  149 Tamanho do lote:  16 Dropout:  0.34
Epoch 1/149
2024-07-28 01:34:52.493592: I tensorflow/stream_executor/cuda/cuda_dnn.cc:384] Loaded cuDNN version 8100
…
