…
To enable them in other operations, rebuild TensorFlow with the appropriate compiler flags.
2024-07-27 21:33:05.429755: I tensorflow/core/common_runtime/gpu/gpu_device.cc:1616] Created device /job:localhost/replica:0/task:0/device:GPU:0 with 6656 MB memory:  -> device: 0, name: NVIDIA GeForce RTX 4060 Ti, pci bus id: 0000:01:00.0, compute capability: 8.9
1 Physical GPUs, 1 Logical GPUs
Model: "sequential"
_________________________________________________________________
 Layer (type)                Output Shape              Param #   
=================================================================
 conv2d (Conv2D)             (None, 32, 32, 32)        896       
                                                                 
 conv2d_1 (Conv2D)           (None, 32, 32, 32)        25632     
                                                                 
 max_pooling2d (MaxPooling2D  (None, 16, 16, 32)       0         
 )                                                               
                                                                 
 batch_normalization (BatchN  (None, 16, 16, 32)       128       
 ormalization)                                                   
                                                                 
 conv2d_2 (Conv2D)           (None, 16, 16, 64)        51264     
                                                                 
 conv2d_3 (Conv2D)           (None, 16, 16, 256)       409856    
                                                                 
 batch_normalization_1 (Batc  (None, 16, 16, 256)      1024      
 hNormalization)                                                 
                                                                 
 conv2d_4 (Conv2D)           (None, 16, 16, 32)        204832    
                                                                 
 batch_normalization_2 (Batc  (None, 16, 16, 32)       128       
 hNormalization)                                                 
                                                                 
 dropout (Dropout)           (None, 16, 16, 32)        0         
                                                                 
 flatten (Flatten)           (None, 8192)              0         
                                                                 
 dense (Dense)               (None, 94)                770142    
                                                                 
 dropout_1 (Dropout)         (None, 94)                0         
                                                                 
 dense_1 (Dense)             (None, 10)                950       
                                                                 
=================================================================
Total params: 1,464,852
Trainable params: 1,464,212
Non-trainable params: 640
_________________________________________________________________
Taxa de aprendizado:  0.001 Num de épocas:  219 Tamanho do lote:  256 Dropout:  0.29
Epoch 1/219
2024-07-27 21:33:06.964235: I tensorflow/stream_executor/cuda/cuda_dnn.cc:384] Loaded cuDNN version 8100
…
