…
To enable them in other operations, rebuild TensorFlow with the appropriate compiler flags.
2024-07-28 05:39:59.146818: I tensorflow/core/common_runtime/gpu/gpu_device.cc:1616] Created device /job:localhost/replica:0/task:0/device:GPU:0 with 6656 MB memory:  -> device: 0, name: NVIDIA GeForce RTX 4060 Ti, pci bus id: 0000:01:00.0, compute capability: 8.9
1 Physical GPUs, 1 Logical GPUs
Model: "sequential"
_________________________________________________________________
 Layer (type)                Output Shape              Param #   
=================================================================
 conv2d (Conv2D)             (None, 32, 32, 32)        896       
                                                                 
 conv2d_1 (Conv2D)           (None, 32, 32, 128)       331904    
                                                                 
 max_pooling2d (MaxPooling2D  (None, 16, 16, 128)      0         
 )                                                               
                                                                 
 batch_normalization (BatchN  (None, 16, 16, 128)      512       
 ormalization)                                                   
                                                                 
 conv2d_2 (Conv2D)           (None, 16, 16, 32)        102432    
                                                                 
 conv2d_3 (Conv2D)           (None, 16, 16, 128)       495744    
                                                                 
 max_pooling2d_1 (MaxPooling  (None, 8, 8, 128)        0         
 2D)                                                             
                                                                 
 batch_normalization_1 (Batc  (None, 8, 8, 128)        512       
 hNormalization)                                                 
                                                                 
 conv2d_4 (Conv2D)           (None, 8, 8, 32)          102432    
                                                                 
 batch_normalization_2 (Batc  (None, 8, 8, 32)         128       
 hNormalization)                                                 
                                                                 
 dropout (Dropout)           (None, 8, 8, 32)          0         
                                                                 
 flatten (Flatten)           (None, 2048)              0         
                                                                 
 dense (Dense)               (None, 10)                20490     
                                                                 
=================================================================
Total params: 1,055,050
Trainable params: 1,054,474
Non-trainable params: 576
_________________________________________________________________
Taxa de aprendizado:  0.001 Num de pocas:  55 Tamanho do lote:  16 Dropout:  0.19
Epoch 1/55
2024-07-28 05:40:00.636989: I tensorflow/stream_executor/cuda/cuda_dnn.cc:384] Loaded cuDNN version 8100
…
