…
To enable them in other operations, rebuild TensorFlow with the appropriate compiler flags.
2024-07-26 02:50:56.071521: I tensorflow/core/common_runtime/gpu/gpu_device.cc:1616] Created device /job:localhost/replica:0/task:0/device:GPU:0 with 6656 MB memory:  -> device: 0, name: NVIDIA GeForce RTX 4060 Ti, pci bus id: 0000:01:00.0, compute capability: 8.9
1 Physical GPUs, 1 Logical GPUs
Model: "sequential"
_________________________________________________________________
 Layer (type)                Output Shape              Param #   
=================================================================
 conv2d (Conv2D)             (None, 32, 32, 32)        896       
                                                                 
 max_pooling2d (MaxPooling2D  (None, 16, 16, 32)       0         
 )                                                               
                                                                 
 dropout (Dropout)           (None, 16, 16, 32)        0         
                                                                 
 flatten (Flatten)           (None, 8192)              0         
                                                                 
 dense (Dense)               (None, 38)                311334    
                                                                 
 dropout_1 (Dropout)         (None, 38)                0         
                                                                 
 dense_1 (Dense)             (None, 90)                3510      
                                                                 
 dropout_2 (Dropout)         (None, 90)                0         
                                                                 
 dense_2 (Dense)             (None, 10)                910       
                                                                 
=================================================================
Total params: 316,650
Trainable params: 316,650
Non-trainable params: 0
_________________________________________________________________
Taxa de aprendizado:  0.1 Num de épocas:  205 Tamanho do lote:  64 Dropout:  0.22
Epoch 1/205
2024-07-26 02:50:57.168058: I tensorflow/stream_executor/cuda/cuda_dnn.cc:384] Loaded cuDNN version 8100
…
