…
To enable them in other operations, rebuild TensorFlow with the appropriate compiler flags.
2024-07-26 06:40:03.203635: I tensorflow/core/common_runtime/gpu/gpu_device.cc:1616] Created device /job:localhost/replica:0/task:0/device:GPU:0 with 6656 MB memory:  -> device: 0, name: NVIDIA GeForce RTX 4060 Ti, pci bus id: 0000:01:00.0, compute capability: 8.9
1 Physical GPUs, 1 Logical GPUs
Model: "sequential"
_________________________________________________________________
 Layer (type)                Output Shape              Param #   
=================================================================
 conv2d (Conv2D)             (None, 32, 32, 32)        896       
                                                                 
 batch_normalization (BatchN  (None, 32, 32, 32)       128       
 ormalization)                                                   
                                                                 
 conv2d_1 (Conv2D)           (None, 32, 32, 64)        165952    
                                                                 
 max_pooling2d (MaxPooling2D  (None, 16, 16, 64)       0         
 )                                                               
                                                                 
 batch_normalization_1 (Batc  (None, 16, 16, 64)       256       
 hNormalization)                                                 
                                                                 
 conv2d_2 (Conv2D)           (None, 16, 16, 32)        51232     
                                                                 
 max_pooling2d_1 (MaxPooling  (None, 8, 8, 32)         0         
 2D)                                                             
                                                                 
 conv2d_3 (Conv2D)           (None, 8, 8, 128)         200832    
                                                                 
 max_pooling2d_2 (MaxPooling  (None, 4, 4, 128)        0         
 2D)                                                             
                                                                 
 batch_normalization_2 (Batc  (None, 4, 4, 128)        512       
 hNormalization)                                                 
                                                                 
 conv2d_4 (Conv2D)           (None, 4, 4, 32)          331808    
                                                                 
 conv2d_5 (Conv2D)           (None, 4, 4, 32)          9248      
                                                                 
 batch_normalization_3 (Batc  (None, 4, 4, 32)         128       
 hNormalization)                                                 
                                                                 
 dropout (Dropout)           (None, 4, 4, 32)          0         
                                                                 
 flatten (Flatten)           (None, 512)               0         
                                                                 
 dense (Dense)               (None, 10)                5130      
                                                                 
=================================================================
Total params: 766,122
Trainable params: 765,610
Non-trainable params: 512
_________________________________________________________________
Taxa de aprendizado:  0.01 Num de épocas:  283 Tamanho do lote:  16 Dropout:  0.19
Epoch 1/283
2024-07-26 06:40:05.585619: I tensorflow/stream_executor/cuda/cuda_dnn.cc:384] Loaded cuDNN version 8100
…
