…
To enable them in other operations, rebuild TensorFlow with the appropriate compiler flags.
2024-07-26 08:00:56.785206: I tensorflow/core/common_runtime/gpu/gpu_device.cc:1616] Created device /job:localhost/replica:0/task:0/device:GPU:0 with 6656 MB memory:  -> device: 0, name: NVIDIA GeForce RTX 4060 Ti, pci bus id: 0000:01:00.0, compute capability: 8.9
1 Physical GPUs, 1 Logical GPUs
Model: "sequential"
_________________________________________________________________
 Layer (type)                Output Shape              Param #   
=================================================================
 conv2d (Conv2D)             (None, 32, 32, 32)        896       
                                                                 
 conv2d_1 (Conv2D)           (None, 32, 32, 128)       200832    
                                                                 
 max_pooling2d (MaxPooling2D  (None, 16, 16, 128)      0         
 )                                                               
                                                                 
 batch_normalization (BatchN  (None, 16, 16, 128)      512       
 ormalization)                                                   
                                                                 
 conv2d_2 (Conv2D)           (None, 16, 16, 32)        200736    
                                                                 
 conv2d_3 (Conv2D)           (None, 16, 16, 256)       991488    
                                                                 
 max_pooling2d_1 (MaxPooling  (None, 8, 8, 256)        0         
 2D)                                                             
                                                                 
 batch_normalization_1 (Batc  (None, 8, 8, 256)        1024      
 hNormalization)                                                 
                                                                 
 conv2d_4 (Conv2D)           (None, 8, 8, 64)          1982528   
                                                                 
 batch_normalization_2 (Batc  (None, 8, 8, 64)         256       
 hNormalization)                                                 
                                                                 
 dropout (Dropout)           (None, 8, 8, 64)          0         
                                                                 
 flatten (Flatten)           (None, 4096)              0         
                                                                 
 dense (Dense)               (None, 10)                40970     
                                                                 
=================================================================
Total params: 3,419,242
Trainable params: 3,418,346
Non-trainable params: 896
_________________________________________________________________
Taxa de aprendizado:  0.1 Num de épocas:  167 Tamanho do lote:  32 Dropout:  0.09
Epoch 1/167
2024-07-26 08:00:58.313859: I tensorflow/stream_executor/cuda/cuda_dnn.cc:384] Loaded cuDNN version 8100
…
