…
To enable them in other operations, rebuild TensorFlow with the appropriate compiler flags.
2024-07-26 10:37:07.017827: I tensorflow/core/common_runtime/gpu/gpu_device.cc:1616] Created device /job:localhost/replica:0/task:0/device:GPU:0 with 6656 MB memory:  -> device: 0, name: NVIDIA GeForce RTX 4060 Ti, pci bus id: 0000:01:00.0, compute capability: 8.9
1 Physical GPUs, 1 Logical GPUs
Model: "sequential"
_________________________________________________________________
 Layer (type)                Output Shape              Param #   
=================================================================
 conv2d (Conv2D)             (None, 32, 32, 32)        896       
                                                                 
 conv2d_1 (Conv2D)           (None, 32, 32, 256)       401664    
                                                                 
 max_pooling2d (MaxPooling2D  (None, 16, 16, 256)      0         
 )                                                               
                                                                 
 conv2d_2 (Conv2D)           (None, 16, 16, 64)        409664    
                                                                 
 conv2d_3 (Conv2D)           (None, 16, 16, 128)       991360    
                                                                 
 max_pooling2d_1 (MaxPooling  (None, 8, 8, 128)        0         
 2D)                                                             
                                                                 
 batch_normalization (BatchN  (None, 8, 8, 128)        512       
 ormalization)                                                   
                                                                 
 conv2d_4 (Conv2D)           (None, 8, 8, 32)          102432    
                                                                 
 dropout (Dropout)           (None, 8, 8, 32)          0         
                                                                 
 flatten (Flatten)           (None, 2048)              0         
                                                                 
 dense (Dense)               (None, 10)                20490     
                                                                 
=================================================================
Total params: 1,927,018
Trainable params: 1,926,762
Non-trainable params: 256
_________________________________________________________________
Taxa de aprendizado:  0.001 Num de épocas:  103 Tamanho do lote:  32 Dropout:  0.17
Epoch 1/103
2024-07-26 10:37:08.454185: I tensorflow/stream_executor/cuda/cuda_dnn.cc:384] Loaded cuDNN version 8100
…
