…
To enable them in other operations, rebuild TensorFlow with the appropriate compiler flags.
2024-07-26 00:33:24.169531: I tensorflow/core/common_runtime/gpu/gpu_device.cc:1616] Created device /job:localhost/replica:0/task:0/device:GPU:0 with 6656 MB memory:  -> device: 0, name: NVIDIA GeForce RTX 4060 Ti, pci bus id: 0000:01:00.0, compute capability: 8.9
dataset carregado
1 Physical GPUs, 1 Logical GPUs
Model: "sequential"
_________________________________________________________________
 Layer (type)                Output Shape              Param #   
=================================================================
 conv2d (Conv2D)             (None, 32, 32, 32)        896       
                                                                 
 batch_normalization (BatchN  (None, 32, 32, 32)       128       
 ormalization)                                                   
                                                                 
 conv2d_1 (Conv2D)           (None, 32, 32, 128)       200832    
                                                                 
 max_pooling2d (MaxPooling2D  (None, 16, 16, 128)      0         
 )                                                               
                                                                 
 batch_normalization_1 (Batc  (None, 16, 16, 128)      512       
 hNormalization)                                                 
                                                                 
 conv2d_2 (Conv2D)           (None, 16, 16, 128)       802944    
                                                                 
 max_pooling2d_1 (MaxPooling  (None, 8, 8, 128)        0         
 2D)                                                             
                                                                 
 dropout (Dropout)           (None, 8, 8, 128)         0         
                                                                 
 flatten (Flatten)           (None, 8192)              0         
                                                                 
 dense (Dense)               (None, 26)                213018    
                                                                 
 dropout_1 (Dropout)         (None, 26)                0         
                                                                 
 dense_1 (Dense)             (None, 10)                270       
                                                                 
=================================================================
Total params: 1,218,600
Trainable params: 1,218,280
Non-trainable params: 320
_________________________________________________________________
Taxa de aprendizado:  0.1 Num de épocas:  226 Tamanho do lote:  128 Dropout:  0.12
Epoch 1/226
2024-07-26 00:33:25.606932: I tensorflow/stream_executor/cuda/cuda_dnn.cc:384] Loaded cuDNN version 8100
…
