…
To enable them in other operations, rebuild TensorFlow with the appropriate compiler flags.
2024-07-26 12:00:30.513689: I tensorflow/core/common_runtime/gpu/gpu_device.cc:1616] Created device /job:localhost/replica:0/task:0/device:GPU:0 with 6656 MB memory:  -> device: 0, name: NVIDIA GeForce RTX 4060 Ti, pci bus id: 0000:01:00.0, compute capability: 8.9
1 Physical GPUs, 1 Logical GPUs
Model: "sequential"
_________________________________________________________________
 Layer (type)                Output Shape              Param #   
=================================================================
 conv2d (Conv2D)             (None, 32, 32, 32)        896       
                                                                 
 conv2d_1 (Conv2D)           (None, 32, 32, 256)       205056    
                                                                 
 max_pooling2d (MaxPooling2D  (None, 16, 16, 256)      0         
 )                                                               
                                                                 
 batch_normalization (BatchN  (None, 16, 16, 256)      1024      
 ormalization)                                                   
                                                                 
 conv2d_2 (Conv2D)           (None, 16, 16, 32)        73760     
                                                                 
 conv2d_3 (Conv2D)           (None, 16, 16, 64)        100416    
                                                                 
 max_pooling2d_1 (MaxPooling  (None, 8, 8, 64)         0         
 2D)                                                             
                                                                 
 batch_normalization_1 (Batc  (None, 8, 8, 64)         256       
 hNormalization)                                                 
                                                                 
 conv2d_4 (Conv2D)           (None, 8, 8, 64)          36928     
                                                                 
 batch_normalization_2 (Batc  (None, 8, 8, 64)         256       
 hNormalization)                                                 
                                                                 
 conv2d_5 (Conv2D)           (None, 8, 8, 256)         1982720   
                                                                 
 dropout (Dropout)           (None, 8, 8, 256)         0         
                                                                 
 flatten (Flatten)           (None, 16384)             0         
                                                                 
 dense (Dense)               (None, 10)                163850    
                                                                 
=================================================================
Total params: 2,565,162
Trainable params: 2,564,394
Non-trainable params: 768
_________________________________________________________________
Taxa de aprendizado:  0.001 Num de épocas:  119 Tamanho do lote:  64 Dropout:  0.32
Epoch 1/119
2024-07-26 12:00:32.032377: I tensorflow/stream_executor/cuda/cuda_dnn.cc:384] Loaded cuDNN version 8100
…
