…
To enable them in other operations, rebuild TensorFlow with the appropriate compiler flags.
2024-06-26 22:47:42.292916: I tensorflow/core/common_runtime/gpu/gpu_device.cc:1616] Created device /job:localhost/replica:0/task:0/device:GPU:0 with 6656 MB memory:  -> device: 0, name: NVIDIA GeForce RTX 4060 Ti, pci bus id: 0000:01:00.0, compute capability: 8.9
1 Physical GPUs, 1 Logical GPUs
Model: "sequential"
_________________________________________________________________
 Layer (type)                Output Shape              Param #   
=================================================================
 conv2d (Conv2D)             (None, 32, 32, 32)        896       
                                                                 
 batch_normalization (BatchN  (None, 32, 32, 32)       128       
 ormalization)                                                   
                                                                 
 conv2d_1 (Conv2D)           (None, 32, 32, 32)        25632     
                                                                 
 max_pooling2d (MaxPooling2D  (None, 16, 16, 32)       0         
 )                                                               
                                                                 
 conv2d_2 (Conv2D)           (None, 16, 16, 32)        123936    
                                                                 
 max_pooling2d_1 (MaxPooling  (None, 8, 8, 32)         0         
 2D)                                                             
                                                                 
 batch_normalization_1 (Batc  (None, 8, 8, 32)         128       
 hNormalization)                                                 
                                                                 
 conv2d_3 (Conv2D)           (None, 8, 8, 64)          18496     
                                                                 
 max_pooling2d_2 (MaxPooling  (None, 4, 4, 64)         0         
 2D)                                                             
                                                                 
 batch_normalization_2 (Batc  (None, 4, 4, 64)         256       
 hNormalization)                                                 
                                                                 
 conv2d_4 (Conv2D)           (None, 4, 4, 32)          165920    
                                                                 
 dropout (Dropout)           (None, 4, 4, 32)          0         
                                                                 
 flatten (Flatten)           (None, 512)               0         
                                                                 
 dense (Dense)               (None, 10)                5130      
                                                                 
=================================================================
Total params: 340,522
Trainable params: 340,266
Non-trainable params: 256
_________________________________________________________________
Taxa de aprendizado:  0.001 Num de épocas:  162 Tamanho do lote:  128 Dropout:  0.48596
Epoch 1/162
2024-06-26 22:47:43.806600: I tensorflow/stream_executor/cuda/cuda_dnn.cc:384] Loaded cuDNN version 8100
…
