…
To enable them in other operations, rebuild TensorFlow with the appropriate compiler flags.
2024-06-25 21:01:18.169589: I tensorflow/core/common_runtime/gpu/gpu_device.cc:1616] Created device /job:localhost/replica:0/task:0/device:GPU:0 with 6656 MB memory:  -> device: 0, name: NVIDIA GeForce RTX 4060 Ti, pci bus id: 0000:01:00.0, compute capability: 8.9
1 Physical GPUs, 1 Logical GPUs
Model: "sequential"
_________________________________________________________________
 Layer (type)                Output Shape              Param #   
=================================================================
 conv2d (Conv2D)             (None, 32, 32, 32)        896       
                                                                 
 batch_normalization (BatchN  (None, 32, 32, 32)       128       
 ormalization)                                                   
                                                                 
 conv2d_1 (Conv2D)           (None, 32, 32, 256)       205056    
                                                                 
 conv2d_2 (Conv2D)           (None, 32, 32, 128)       3965056   
                                                                 
 batch_normalization_1 (Batc  (None, 32, 32, 128)      512       
 hNormalization)                                                 
                                                                 
 dropout (Dropout)           (None, 32, 32, 128)       0         
                                                                 
 flatten (Flatten)           (None, 131072)            0         
                                                                 
 dense (Dense)               (None, 10)                1310730   
                                                                 
=================================================================
Total params: 5,482,378
Trainable params: 5,482,058
Non-trainable params: 320
_________________________________________________________________
Taxa de aprendizado:  0.1 Num de épocas:  245 Tamanho do lote:  128 Dropout:  0.38347
Epoch 1/245
2024-06-25 21:01:20.155544: I tensorflow/stream_executor/cuda/cuda_dnn.cc:384] Loaded cuDNN version 8100
…
