…
To enable them in other operations, rebuild TensorFlow with the appropriate compiler flags.
2024-06-26 03:48:01.343667: I tensorflow/core/common_runtime/gpu/gpu_device.cc:1616] Created device /job:localhost/replica:0/task:0/device:GPU:0 with 6656 MB memory:  -> device: 0, name: NVIDIA GeForce RTX 4060 Ti, pci bus id: 0000:01:00.0, compute capability: 8.9
1 Physical GPUs, 1 Logical GPUs
Model: "sequential"
_________________________________________________________________
 Layer (type)                Output Shape              Param #   
=================================================================
 conv2d (Conv2D)             (None, 32, 32, 32)        896       
                                                                 
 max_pooling2d (MaxPooling2D  (None, 16, 16, 32)       0         
 )                                                               
                                                                 
 batch_normalization (BatchN  (None, 16, 16, 32)       128       
 ormalization)                                                   
                                                                 
 conv2d_1 (Conv2D)           (None, 16, 16, 256)       663808    
                                                                 
 max_pooling2d_1 (MaxPooling  (None, 8, 8, 256)        0         
 2D)                                                             
                                                                 
 conv2d_2 (Conv2D)           (None, 8, 8, 256)         590080    
                                                                 
 max_pooling2d_2 (MaxPooling  (None, 4, 4, 256)        0         
 2D)                                                             
                                                                 
 batch_normalization_1 (Batc  (None, 4, 4, 256)        1024      
 hNormalization)                                                 
                                                                 
 conv2d_3 (Conv2D)           (None, 4, 4, 128)         1605760   
                                                                 
 max_pooling2d_3 (MaxPooling  (None, 2, 2, 128)        0         
 2D)                                                             
                                                                 
 batch_normalization_2 (Batc  (None, 2, 2, 128)        512       
 hNormalization)                                                 
                                                                 
 dropout (Dropout)           (None, 2, 2, 128)         0         
                                                                 
 flatten (Flatten)           (None, 512)               0         
                                                                 
 dense (Dense)               (None, 120)               61560     
                                                                 
 dropout_1 (Dropout)         (None, 120)               0         
                                                                 
 dense_1 (Dense)             (None, 10)                1210      
                                                                 
=================================================================
Total params: 2,924,978
Trainable params: 2,924,146
Non-trainable params: 832
_________________________________________________________________
Taxa de aprendizado:  0.001 Num de épocas:  152 Tamanho do lote:  128 Dropout:  0.19658
Epoch 1/152
2024-06-26 03:48:03.696484: I tensorflow/stream_executor/cuda/cuda_dnn.cc:384] Loaded cuDNN version 8100
…
