…
To enable them in other operations, rebuild TensorFlow with the appropriate compiler flags.
2024-06-25 12:21:47.293775: I tensorflow/core/common_runtime/gpu/gpu_device.cc:1616] Created device /job:localhost/replica:0/task:0/device:GPU:0 with 6656 MB memory:  -> device: 0, name: NVIDIA GeForce RTX 4060 Ti, pci bus id: 0000:01:00.0, compute capability: 8.9
1 Physical GPUs, 1 Logical GPUs
Model: "sequential"
_________________________________________________________________
 Layer (type)                Output Shape              Param #   
=================================================================
 conv2d (Conv2D)             (None, 32, 32, 32)        896       
                                                                 
 max_pooling2d (MaxPooling2D  (None, 16, 16, 32)       0         
 )                                                               
                                                                 
 batch_normalization (BatchN  (None, 16, 16, 32)       128       
 ormalization)                                                   
                                                                 
 conv2d_1 (Conv2D)           (None, 16, 16, 256)       73984     
                                                                 
 dropout (Dropout)           (None, 16, 16, 256)       0         
                                                                 
 flatten (Flatten)           (None, 65536)             0         
                                                                 
 dense (Dense)               (None, 86)                5636182   
                                                                 
 dropout_1 (Dropout)         (None, 86)                0         
                                                                 
 dense_1 (Dense)             (None, 10)                870       
                                                                 
=================================================================
Total params: 5,712,060
Trainable params: 5,711,996
Non-trainable params: 64
_________________________________________________________________
Taxa de aprendizado:  1 Num de épocas:  161 Tamanho do lote:  16 Dropout:  0.20112
Epoch 1/161
2024-06-25 12:21:48.675760: I tensorflow/stream_executor/cuda/cuda_dnn.cc:384] Loaded cuDNN version 8100
…
