…
To enable them in other operations, rebuild TensorFlow with the appropriate compiler flags.
2024-06-26 10:11:47.898362: I tensorflow/core/common_runtime/gpu/gpu_device.cc:1616] Created device /job:localhost/replica:0/task:0/device:GPU:0 with 6656 MB memory:  -> device: 0, name: NVIDIA GeForce RTX 4060 Ti, pci bus id: 0000:01:00.0, compute capability: 8.9
1 Physical GPUs, 1 Logical GPUs
Model: "sequential"
_________________________________________________________________
 Layer (type)                Output Shape              Param #   
=================================================================
 conv2d (Conv2D)             (None, 32, 32, 32)        896       
                                                                 
 max_pooling2d (MaxPooling2D  (None, 16, 16, 32)       0         
 )                                                               
                                                                 
 batch_normalization (BatchN  (None, 16, 16, 32)       128       
 ormalization)                                                   
                                                                 
 conv2d_1 (Conv2D)           (None, 16, 16, 64)        18496     
                                                                 
 conv2d_2 (Conv2D)           (None, 16, 16, 128)       663680    
                                                                 
 conv2d_3 (Conv2D)           (None, 16, 16, 64)        204864    
                                                                 
 batch_normalization_1 (Batc  (None, 16, 16, 64)       256       
 hNormalization)                                                 
                                                                 
 conv2d_4 (Conv2D)           (None, 16, 16, 128)       204928    
                                                                 
 batch_normalization_2 (Batc  (None, 16, 16, 128)      512       
 hNormalization)                                                 
                                                                 
 conv2d_5 (Conv2D)           (None, 16, 16, 32)        102432    
                                                                 
 batch_normalization_3 (Batc  (None, 16, 16, 32)       128       
 hNormalization)                                                 
                                                                 
 dropout (Dropout)           (None, 16, 16, 32)        0         
                                                                 
 flatten (Flatten)           (None, 8192)              0         
                                                                 
 dense (Dense)               (None, 10)                81930     
                                                                 
=================================================================
Total params: 1,278,250
Trainable params: 1,277,738
Non-trainable params: 512
_________________________________________________________________
Taxa de aprendizado:  0.0001 Num de épocas:  155 Tamanho do lote:  1024 Dropout:  0.15013
Epoch 1/155
2024-06-26 10:11:50.105592: I tensorflow/stream_executor/cuda/cuda_dnn.cc:384] Loaded cuDNN version 8100
…
